{"modelTopology": {"keras_version": "2.2.4", "backend": "tensorflow", "model_config": {"class_name": "Model", "config": {"name": "model_1", "layers": [{"name": "input_1", "class_name": "InputLayer", "config": {"batch_input_shape": [null, 299, 299, 3], "dtype": "float32", "sparse": false, "name": "input_1"}, "inbound_nodes": []}, {"name": "conv2d_1", "class_name": "Conv2D", "config": {"name": "conv2d_1", "trainable": false, "filters": 32, "kernel_size": [3, 3], "strides": [2, 2], "padding": "valid", "data_format": "channels_last", "dilation_rate": [1, 1], "activation": "linear", "use_bias": false, "kernel_initializer": {"class_name": "VarianceScaling", "config": {"scale": 1.0, "mode": "fan_avg", "distribution": "uniform", "seed": null}}, "bias_initializer": {"class_name": "Zeros", "config": {}}, "kernel_regularizer": null, "bias_regularizer": null, "activity_regularizer": null, "kernel_constraint": null, "bias_constraint": null}, "inbound_nodes": [[["input_1", 0, 0, {}]]]}, {"name": "batch_normalization_1", "class_name": "BatchNormalization", "config": {"name": "batch_normalization_1", "trainable": false, "axis": 3, "momentum": 0.99, "epsilon": 0.001, "center": true, "scale": false, "beta_initializer": {"class_name": "Zeros", "config": {}}, "gamma_initializer": {"class_name": "Ones", "config": {}}, "moving_mean_initializer": {"class_name": "Zeros", "config": {}}, "moving_variance_initializer": {"class_name": "Ones", "config": {}}, "beta_regularizer": null, "gamma_regularizer": null, "beta_constraint": null, "gamma_constraint": null}, "inbound_nodes": [[["conv2d_1", 0, 0, {}]]]}, {"name": "activation_1", "class_name": "Activation", "config": {"name": "activation_1", "trainable": false, "activation": "relu"}, "inbound_nodes": [[["batch_normalization_1", 0, 0, {}]]]}, {"name": "conv2d_2", "class_name": "Conv2D", "config": {"name": "conv2d_2", "trainable": false, "filters": 32, "kernel_size": [3, 3], "strides": [1, 1], "padding": "valid", "data_format": "channels_last", "dilation_rate": [1, 1], "activation": "linear", "use_bias": false, "kernel_initializer": {"class_name": "VarianceScaling", "config": {"scale": 1.0, "mode": "fan_avg", "distribution": "uniform", "seed": null}}, "bias_initializer": {"class_name": "Zeros", "config": {}}, "kernel_regularizer": null, "bias_regularizer": null, "activity_regularizer": null, "kernel_constraint": null, "bias_constraint": null}, "inbound_nodes": [[["activation_1", 0, 0, {}]]]}, {"name": "batch_normalization_2", "class_name": "BatchNormalization", "config": {"name": "batch_normalization_2", "trainable": false, "axis": 3, "momentum": 0.99, "epsilon": 0.001, "center": true, "scale": false, "beta_initializer": {"class_name": "Zeros", "config": {}}, "gamma_initializer": {"class_name": "Ones", "config": {}}, "moving_mean_initializer": {"class_name": "Zeros", "config": {}}, "moving_variance_initializer": {"class_name": "Ones", "config": {}}, "beta_regularizer": null, "gamma_regularizer": null, "beta_constraint": null, "gamma_constraint": null}, "inbound_nodes": [[["conv2d_2", 0, 0, {}]]]}, {"name": "activation_2", "class_name": "Activation", "config": {"name": "activation_2", "trainable": false, "activation": "relu"}, "inbound_nodes": [[["batch_normalization_2", 0, 0, {}]]]}, {"name": "conv2d_3", "class_name": "Conv2D", "config": {"name": "conv2d_3", "trainable": false, "filters": 64, "kernel_size": [3, 3], "strides": [1, 1], "padding": "same", "data_format": "channels_last", "dilation_rate": [1, 1], "activation": "linear", "use_bias": false, "kernel_initializer": {"class_name": "VarianceScaling", "config": {"scale": 1.0, "mode": "fan_avg", "distribution": "uniform", "seed": null}}, "bias_initializer": {"class_name": "Zeros", "config": {}}, "kernel_regularizer": null, "bias_regularizer": null, "activity_regularizer": null, "kernel_constraint": null, "bias_constraint": null}, "inbound_nodes": [[["activation_2", 0, 0, {}]]]}, {"name": "batch_normalization_3", "class_name": "BatchNormalization", "config": {"name": "batch_normalization_3", "trainable": false, "axis": 3, "momentum": 0.99, "epsilon": 0.001, "center": true, "scale": false, "beta_initializer": {"class_name": "Zeros", "config": {}}, "gamma_initializer": {"class_name": "Ones", "config": {}}, "moving_mean_initializer": {"class_name": "Zeros", "config": {}}, "moving_variance_initializer": {"class_name": "Ones", "config": {}}, "beta_regularizer": null, "gamma_regularizer": null, "beta_constraint": null, "gamma_constraint": null}, "inbound_nodes": [[["conv2d_3", 0, 0, {}]]]}, {"name": "activation_3", "class_name": "Activation", "config": {"name": "activation_3", "trainable": false, "activation": "relu"}, "inbound_nodes": [[["batch_normalization_3", 0, 0, {}]]]}, {"name": "max_pooling2d_1", "class_name": "MaxPooling2D", "config": {"name": "max_pooling2d_1", "trainable": false, "pool_size": [3, 3], "padding": "valid", "strides": [2, 2], "data_format": "channels_last"}, "inbound_nodes": [[["activation_3", 0, 0, {}]]]}, {"name": "conv2d_4", "class_name": "Conv2D", "config": {"name": "conv2d_4", "trainable": false, "filters": 80, "kernel_size": [1, 1], "strides": [1, 1], "padding": "valid", "data_format": "channels_last", "dilation_rate": [1, 1], "activation": "linear", "use_bias": false, "kernel_initializer": {"class_name": "VarianceScaling", "config": {"scale": 1.0, "mode": "fan_avg", "distribution": "uniform", "seed": null}}, "bias_initializer": {"class_name": "Zeros", "config": {}}, "kernel_regularizer": null, "bias_regularizer": null, "activity_regularizer": null, "kernel_constraint": null, "bias_constraint": null}, "inbound_nodes": [[["max_pooling2d_1", 0, 0, {}]]]}, {"name": "batch_normalization_4", "class_name": "BatchNormalization", "config": {"name": "batch_normalization_4", "trainable": false, "axis": 3, "momentum": 0.99, "epsilon": 0.001, "center": true, "scale": false, "beta_initializer": {"class_name": "Zeros", "config": {}}, "gamma_initializer": {"class_name": "Ones", "config": {}}, "moving_mean_initializer": {"class_name": "Zeros", "config": {}}, "moving_variance_initializer": {"class_name": "Ones", "config": {}}, "beta_regularizer": null, "gamma_regularizer": null, "beta_constraint": null, "gamma_constraint": null}, "inbound_nodes": [[["conv2d_4", 0, 0, {}]]]}, {"name": "activation_4", "class_name": "Activation", "config": {"name": "activation_4", "trainable": false, "activation": "relu"}, "inbound_nodes": [[["batch_normalization_4", 0, 0, {}]]]}, {"name": "conv2d_5", "class_name": "Conv2D", "config": {"name": "conv2d_5", "trainable": false, "filters": 192, "kernel_size": [3, 3], "strides": [1, 1], "padding": "valid", "data_format": "channels_last", "dilation_rate": [1, 1], "activation": "linear", "use_bias": false, "kernel_initializer": {"class_name": "VarianceScaling", "config": {"scale": 1.0, "mode": "fan_avg", "distribution": "uniform", "seed": null}}, "bias_initializer": {"class_name": "Zeros", "config": {}}, "kernel_regularizer": null, "bias_regularizer": null, "activity_regularizer": null, "kernel_constraint": null, "bias_constraint": null}, "inbound_nodes": [[["activation_4", 0, 0, {}]]]}, {"name": "batch_normalization_5", "class_name": "BatchNormalization", "config": {"name": "batch_normalization_5", "trainable": false, "axis": 3, "momentum": 0.99, "epsilon": 0.001, "center": true, "scale": false, "beta_initializer": {"class_name": "Zeros", "config": {}}, "gamma_initializer": {"class_name": "Ones", "config": {}}, "moving_mean_initializer": {"class_name": "Zeros", "config": {}}, "moving_variance_initializer": {"class_name": "Ones", "config": {}}, "beta_regularizer": null, "gamma_regularizer": null, "beta_constraint": null, "gamma_constraint": null}, "inbound_nodes": [[["conv2d_5", 0, 0, {}]]]}, {"name": "activation_5", "class_name": "Activation", "config": {"name": "activation_5", "trainable": false, "activation": "relu"}, "inbound_nodes": [[["batch_normalization_5", 0, 0, {}]]]}, {"name": "max_pooling2d_2", "class_name": "MaxPooling2D", "config": {"name": "max_pooling2d_2", "trainable": false, "pool_size": [3, 3], "padding": "valid", "strides": [2, 2], "data_format": "channels_last"}, "inbound_nodes": [[["activation_5", 0, 0, {}]]]}, {"name": "conv2d_9", "class_name": "Conv2D", "config": {"name": "conv2d_9", "trainable": false, "filters": 64, "kernel_size": [1, 1], "strides": [1, 1], "padding": "same", "data_format": "channels_last", "dilation_rate": [1, 1], "activation": "linear", "use_bias": false, "kernel_initializer": {"class_name": "VarianceScaling", "config": {"scale": 1.0, "mode": "fan_avg", "distribution": "uniform", "seed": null}}, "bias_initializer": {"class_name": "Zeros", "config": {}}, "kernel_regularizer": null, "bias_regularizer": null, "activity_regularizer": null, "kernel_constraint": null, "bias_constraint": null}, "inbound_nodes": [[["max_pooling2d_2", 0, 0, {}]]]}, {"name": "batch_normalization_9", "class_name": "BatchNormalization", "config": {"name": "batch_normalization_9", "trainable": false, "axis": 3, "momentum": 0.99, "epsilon": 0.001, "center": true, "scale": false, "beta_initializer": {"class_name": "Zeros", "config": {}}, "gamma_initializer": {"class_name": "Ones", "config": {}}, "moving_mean_initializer": {"class_name": "Zeros", "config": {}}, "moving_variance_initializer": {"class_name": "Ones", "config": {}}, "beta_regularizer": null, "gamma_regularizer": null, "beta_constraint": null, "gamma_constraint": null}, "inbound_nodes": [[["conv2d_9", 0, 0, {}]]]}, {"name": "activation_9", "class_name": "Activation", "config": {"name": "activation_9", "trainable": false, "activation": "relu"}, "inbound_nodes": [[["batch_normalization_9", 0, 0, {}]]]}, {"name": "conv2d_7", "class_name": "Conv2D", "config": {"name": "conv2d_7", "trainable": false, "filters": 48, "kernel_size": [1, 1], "strides": [1, 1], "padding": "same", "data_format": "channels_last", "dilation_rate": [1, 1], "activation": "linear", "use_bias": false, "kernel_initializer": {"class_name": "VarianceScaling", "config": {"scale": 1.0, "mode": "fan_avg", "distribution": "uniform", "seed": null}}, "bias_initializer": {"class_name": "Zeros", "config": {}}, "kernel_regularizer": null, "bias_regularizer": null, "activity_regularizer": null, "kernel_constraint": null, "bias_constraint": null}, "inbound_nodes": [[["max_pooling2d_2", 0, 0, {}]]]}, {"name": "conv2d_10", "class_name": "Conv2D", "config": {"name": "conv2d_10", "trainable": false, "filters": 96, "kernel_size": [3, 3], "strides": [1, 1], "padding": "same", "data_format": "channels_last", "dilation_rate": [1, 1], "activation": "linear", "use_bias": false, "kernel_initializer": {"class_name": "VarianceScaling", "config": {"scale": 1.0, "mode": "fan_avg", "distribution": "uniform", "seed": null}}, "bias_initializer": {"class_name": "Zeros", "config": {}}, "kernel_regularizer": null, "bias_regularizer": null, "activity_regularizer": null, "kernel_constraint": null, "bias_constraint": null}, "inbound_nodes": [[["activation_9", 0, 0, {}]]]}, {"name": "batch_normalization_7", "class_name": "BatchNormalization", "config": {"name": "batch_normalization_7", "trainable": false, "axis": 3, "momentum": 0.99, "epsilon": 0.001, "center": true, "scale": false, "beta_initializer": {"class_name": "Zeros", "config": {}}, "gamma_initializer": {"class_name": "Ones", "config": {}}, "moving_mean_initializer": {"class_name": "Zeros", "config": {}}, "moving_variance_initializer": {"class_name": "Ones", "config": {}}, "beta_regularizer": null, "gamma_regularizer": null, "beta_constraint": null, "gamma_constraint": null}, "inbound_nodes": [[["conv2d_7", 0, 0, {}]]]}, {"name": "batch_normalization_10", "class_name": "BatchNormalization", "config": {"name": "batch_normalization_10", "trainable": false, "axis": 3, "momentum": 0.99, "epsilon": 0.001, "center": true, "scale": false, "beta_initializer": {"class_name": "Zeros", "config": {}}, "gamma_initializer": {"class_name": "Ones", "config": {}}, "moving_mean_initializer": {"class_name": "Zeros", "config": {}}, "moving_variance_initializer": {"class_name": "Ones", "config": {}}, "beta_regularizer": null, "gamma_regularizer": null, "beta_constraint": null, "gamma_constraint": null}, "inbound_nodes": [[["conv2d_10", 0, 0, {}]]]}, {"name": "activation_7", "class_name": "Activation", "config": {"name": "activation_7", "trainable": false, "activation": "relu"}, "inbound_nodes": [[["batch_normalization_7", 0, 0, {}]]]}, {"name": "activation_10", "class_name": "Activation", "config": {"name": "activation_10", "trainable": false, "activation": "relu"}, "inbound_nodes": [[["batch_normalization_10", 0, 0, {}]]]}, {"name": "average_pooling2d_1", "class_name": "AveragePooling2D", "config": {"name": "average_pooling2d_1", "trainable": false, "pool_size": [3, 3], "padding": "same", "strides": [1, 1], "data_format": "channels_last"}, "inbound_nodes": [[["max_pooling2d_2", 0, 0, {}]]]}, {"name": "conv2d_6", "class_name": "Conv2D", "config": {"name": "conv2d_6", "trainable": false, "filters": 64, "kernel_size": [1, 1], "strides": [1, 1], "padding": "same", "data_format": "channels_last", "dilation_rate": [1, 1], "activation": "linear", "use_bias": false, "kernel_initializer": {"class_name": "VarianceScaling", "config": {"scale": 1.0, "mode": "fan_avg", "distribution": "uniform", "seed": null}}, "bias_initializer": {"class_name": "Zeros", "config": {}}, "kernel_regularizer": null, "bias_regularizer": null, "activity_regularizer": null, "kernel_constraint": null, "bias_constraint": null}, "inbound_nodes": [[["max_pooling2d_2", 0, 0, {}]]]}, {"name": "conv2d_8", "class_name": "Conv2D", "config": {"name": "conv2d_8", "trainable": false, "filters": 64, "kernel_size": [5, 5], "strides": [1, 1], "padding": "same", "data_format": "channels_last", "dilation_rate": [1, 1], "activation": "linear", "use_bias": false, "kernel_initializer": {"class_name": "VarianceScaling", "config": {"scale": 1.0, "mode": "fan_avg", "distribution": "uniform", "seed": null}}, "bias_initializer": {"class_name": "Zeros", "config": {}}, "kernel_regularizer": null, "bias_regularizer": null, "activity_regularizer": null, "kernel_constraint": null, "bias_constraint": null}, "inbound_nodes": [[["activation_7", 0, 0, {}]]]}, {"name": "conv2d_11", "class_name": "Conv2D", "config": {"name": "conv2d_11", "trainable": false, "filters": 96, "kernel_size": [3, 3], "strides": [1, 1], "padding": "same", "data_format": "channels_last", "dilation_rate": [1, 1], "activation": "linear", "use_bias": false, "kernel_initializer": {"class_name": "VarianceScaling", "config": {"scale": 1.0, "mode": "fan_avg", "distribution": "uniform", "seed": null}}, "bias_initializer": {"class_name": "Zeros", "config": {}}, "kernel_regularizer": null, "bias_regularizer": null, "activity_regularizer": null, "kernel_constraint": null, "bias_constraint": null}, "inbound_nodes": [[["activation_10", 0, 0, {}]]]}, {"name": "conv2d_12", "class_name": "Conv2D", "config": {"name": "conv2d_12", "trainable": false, "filters": 32, "kernel_size": [1, 1], "strides": [1, 1], "padding": "same", "data_format": "channels_last", "dilation_rate": [1, 1], "activation": "linear", "use_bias": false, "kernel_initializer": {"class_name": "VarianceScaling", "config": {"scale": 1.0, "mode": "fan_avg", "distribution": "uniform", "seed": null}}, "bias_initializer": {"class_name": "Zeros", "config": {}}, "kernel_regularizer": null, "bias_regularizer": null, "activity_regularizer": null, "kernel_constraint": null, "bias_constraint": null}, "inbound_nodes": [[["average_pooling2d_1", 0, 0, {}]]]}, {"name": "batch_normalization_6", "class_name": "BatchNormalization", "config": {"name": "batch_normalization_6", "trainable": false, "axis": 3, "momentum": 0.99, "epsilon": 0.001, "center": true, "scale": false, "beta_initializer": {"class_name": "Zeros", "config": {}}, "gamma_initializer": {"class_name": "Ones", "config": {}}, "moving_mean_initializer": {"class_name": "Zeros", "config": {}}, "moving_variance_initializer": {"class_name": "Ones", "config": {}}, "beta_regularizer": null, "gamma_regularizer": null, "beta_constraint": null, "gamma_constraint": null}, "inbound_nodes": [[["conv2d_6", 0, 0, {}]]]}, {"name": "batch_normalization_8", "class_name": "BatchNormalization", "config": {"name": "batch_normalization_8", "trainable": false, "axis": 3, "momentum": 0.99, "epsilon": 0.001, "center": true, "scale": false, "beta_initializer": {"class_name": "Zeros", "config": {}}, "gamma_initializer": {"class_name": "Ones", "config": {}}, "moving_mean_initializer": {"class_name": "Zeros", "config": {}}, "moving_variance_initializer": {"class_name": "Ones", "config": {}}, "beta_regularizer": null, "gamma_regularizer": null, "beta_constraint": null, "gamma_constraint": null}, "inbound_nodes": [[["conv2d_8", 0, 0, {}]]]}, {"name": "batch_normalization_11", "class_name": "BatchNormalization", "config": {"name": "batch_normalization_11", "trainable": false, "axis": 3, "momentum": 0.99, "epsilon": 0.001, "center": true, "scale": false, "beta_initializer": {"class_name": "Zeros", "config": {}}, "gamma_initializer": {"class_name": "Ones", "config": {}}, "moving_mean_initializer": {"class_name": "Zeros", "config": {}}, "moving_variance_initializer": {"class_name": "Ones", "config": {}}, "beta_regularizer": null, "gamma_regularizer": null, "beta_constraint": null, "gamma_constraint": null}, "inbound_nodes": [[["conv2d_11", 0, 0, {}]]]}, {"name": "batch_normalization_12", "class_name": "BatchNormalization", "config": {"name": "batch_normalization_12", "trainable": false, "axis": 3, "momentum": 0.99, "epsilon": 0.001, "center": true, "scale": false, "beta_initializer": {"class_name": "Zeros", "config": {}}, "gamma_initializer": {"class_name": "Ones", "config": {}}, "moving_mean_initializer": {"class_name": "Zeros", "config": {}}, "moving_variance_initializer": {"class_name": "Ones", "config": {}}, "beta_regularizer": null, "gamma_regularizer": null, "beta_constraint": null, "gamma_constraint": null}, "inbound_nodes": [[["conv2d_12", 0, 0, {}]]]}, {"name": "activation_6", "class_name": "Activation", "config": {"name": "activation_6", "trainable": false, "activation": "relu"}, "inbound_nodes": [[["batch_normalization_6", 0, 0, {}]]]}, {"name": "activation_8", "class_name": "Activation", "config": {"name": "activation_8", "trainable": false, "activation": "relu"}, "inbound_nodes": [[["batch_normalization_8", 0, 0, {}]]]}, {"name": "activation_11", "class_name": "Activation", "config": {"name": "activation_11", "trainable": false, "activation": "relu"}, "inbound_nodes": [[["batch_normalization_11", 0, 0, {}]]]}, {"name": "activation_12", "class_name": "Activation", "config": {"name": "activation_12", "trainable": false, "activation": "relu"}, "inbound_nodes": [[["batch_normalization_12", 0, 0, {}]]]}, {"name": "mixed0", "class_name": "Concatenate", "config": {"name": "mixed0", "trainable": false, "axis": 3}, "inbound_nodes": [[["activation_6", 0, 0, {}], ["activation_8", 0, 0, {}], ["activation_11", 0, 0, {}], ["activation_12", 0, 0, {}]]]}, {"name": "conv2d_16", "class_name": "Conv2D", "config": {"name": "conv2d_16", "trainable": false, "filters": 64, "kernel_size": [1, 1], "strides": [1, 1], "padding": "same", "data_format": "channels_last", "dilation_rate": [1, 1], "activation": "linear", "use_bias": false, "kernel_initializer": {"class_name": "VarianceScaling", "config": {"scale": 1.0, "mode": "fan_avg", "distribution": "uniform", "seed": null}}, "bias_initializer": {"class_name": "Zeros", "config": {}}, "kernel_regularizer": null, "bias_regularizer": null, "activity_regularizer": null, "kernel_constraint": null, "bias_constraint": null}, "inbound_nodes": [[["mixed0", 0, 0, {}]]]}, {"name": "batch_normalization_16", "class_name": "BatchNormalization", "config": {"name": "batch_normalization_16", "trainable": false, "axis": 3, "momentum": 0.99, "epsilon": 0.001, "center": true, "scale": false, "beta_initializer": {"class_name": "Zeros", "config": {}}, "gamma_initializer": {"class_name": "Ones", "config": {}}, "moving_mean_initializer": {"class_name": "Zeros", "config": {}}, "moving_variance_initializer": {"class_name": "Ones", "config": {}}, "beta_regularizer": null, "gamma_regularizer": null, "beta_constraint": null, "gamma_constraint": null}, "inbound_nodes": [[["conv2d_16", 0, 0, {}]]]}, {"name": "activation_16", "class_name": "Activation", "config": {"name": "activation_16", "trainable": false, "activation": "relu"}, "inbound_nodes": [[["batch_normalization_16", 0, 0, {}]]]}, {"name": "conv2d_14", "class_name": "Conv2D", "config": {"name": "conv2d_14", "trainable": false, "filters": 48, "kernel_size": [1, 1], "strides": [1, 1], "padding": "same", "data_format": "channels_last", "dilation_rate": [1, 1], "activation": "linear", "use_bias": false, "kernel_initializer": {"class_name": "VarianceScaling", "config": {"scale": 1.0, "mode": "fan_avg", "distribution": "uniform", "seed": null}}, "bias_initializer": {"class_name": "Zeros", "config": {}}, "kernel_regularizer": null, "bias_regularizer": null, "activity_regularizer": null, "kernel_constraint": null, "bias_constraint": null}, "inbound_nodes": [[["mixed0", 0, 0, {}]]]}, {"name": "conv2d_17", "class_name": "Conv2D", "config": {"name": "conv2d_17", "trainable": false, "filters": 96, "kernel_size": [3, 3], "strides": [1, 1], "padding": "same", "data_format": "channels_last", "dilation_rate": [1, 1], "activation": "linear", "use_bias": false, "kernel_initializer": {"class_name": "VarianceScaling", "config": {"scale": 1.0, "mode": "fan_avg", "distribution": "uniform", "seed": null}}, "bias_initializer": {"class_name": "Zeros", "config": {}}, "kernel_regularizer": null, "bias_regularizer": null, "activity_regularizer": null, "kernel_constraint": null, "bias_constraint": null}, "inbound_nodes": [[["activation_16", 0, 0, {}]]]}, {"name": "batch_normalization_14", "class_name": "BatchNormalization", "config": {"name": "batch_normalization_14", "trainable": false, "axis": 3, "momentum": 0.99, "epsilon": 0.001, "center": true, "scale": false, "beta_initializer": {"class_name": "Zeros", "config": {}}, "gamma_initializer": {"class_name": "Ones", "config": {}}, "moving_mean_initializer": {"class_name": "Zeros", "config": {}}, "moving_variance_initializer": {"class_name": "Ones", "config": {}}, "beta_regularizer": null, "gamma_regularizer": null, "beta_constraint": null, "gamma_constraint": null}, "inbound_nodes": [[["conv2d_14", 0, 0, {}]]]}, {"name": "batch_normalization_17", "class_name": "BatchNormalization", "config": {"name": "batch_normalization_17", "trainable": false, "axis": 3, "momentum": 0.99, "epsilon": 0.001, "center": true, "scale": false, "beta_initializer": {"class_name": "Zeros", "config": {}}, "gamma_initializer": {"class_name": "Ones", "config": {}}, "moving_mean_initializer": {"class_name": "Zeros", "config": {}}, "moving_variance_initializer": {"class_name": "Ones", "config": {}}, "beta_regularizer": null, "gamma_regularizer": null, "beta_constraint": null, "gamma_constraint": null}, "inbound_nodes": [[["conv2d_17", 0, 0, {}]]]}, {"name": "activation_14", "class_name": "Activation", "config": {"name": "activation_14", "trainable": false, "activation": "relu"}, "inbound_nodes": [[["batch_normalization_14", 0, 0, {}]]]}, {"name": "activation_17", "class_name": "Activation", "config": {"name": "activation_17", "trainable": false, "activation": "relu"}, "inbound_nodes": [[["batch_normalization_17", 0, 0, {}]]]}, {"name": "average_pooling2d_2", "class_name": "AveragePooling2D", "config": {"name": "average_pooling2d_2", "trainable": false, "pool_size": [3, 3], "padding": "same", "strides": [1, 1], "data_format": "channels_last"}, "inbound_nodes": [[["mixed0", 0, 0, {}]]]}, {"name": "conv2d_13", "class_name": "Conv2D", "config": {"name": "conv2d_13", "trainable": false, "filters": 64, "kernel_size": [1, 1], "strides": [1, 1], "padding": "same", "data_format": "channels_last", "dilation_rate": [1, 1], "activation": "linear", "use_bias": false, "kernel_initializer": {"class_name": "VarianceScaling", "config": {"scale": 1.0, "mode": "fan_avg", "distribution": "uniform", "seed": null}}, "bias_initializer": {"class_name": "Zeros", "config": {}}, "kernel_regularizer": null, "bias_regularizer": null, "activity_regularizer": null, "kernel_constraint": null, "bias_constraint": null}, "inbound_nodes": [[["mixed0", 0, 0, {}]]]}, {"name": "conv2d_15", "class_name": "Conv2D", "config": {"name": "conv2d_15", "trainable": false, "filters": 64, "kernel_size": [5, 5], "strides": [1, 1], "padding": "same", "data_format": "channels_last", "dilation_rate": [1, 1], "activation": "linear", "use_bias": false, "kernel_initializer": {"class_name": "VarianceScaling", "config": {"scale": 1.0, "mode": "fan_avg", "distribution": "uniform", "seed": null}}, "bias_initializer": {"class_name": "Zeros", "config": {}}, "kernel_regularizer": null, "bias_regularizer": null, "activity_regularizer": null, "kernel_constraint": null, "bias_constraint": null}, "inbound_nodes": [[["activation_14", 0, 0, {}]]]}, {"name": "conv2d_18", "class_name": "Conv2D", "config": {"name": "conv2d_18", "trainable": false, "filters": 96, "kernel_size": [3, 3], "strides": [1, 1], "padding": "same", "data_format": "channels_last", "dilation_rate": [1, 1], "activation": "linear", "use_bias": false, "kernel_initializer": {"class_name": "VarianceScaling", "config": {"scale": 1.0, "mode": "fan_avg", "distribution": "uniform", "seed": null}}, "bias_initializer": {"class_name": "Zeros", "config": {}}, "kernel_regularizer": null, "bias_regularizer": null, "activity_regularizer": null, "kernel_constraint": null, "bias_constraint": null}, "inbound_nodes": [[["activation_17", 0, 0, {}]]]}, {"name": "conv2d_19", "class_name": "Conv2D", "config": {"name": "conv2d_19", "trainable": false, "filters": 64, "kernel_size": [1, 1], "strides": [1, 1], "padding": "same", "data_format": "channels_last", "dilation_rate": [1, 1], "activation": "linear", "use_bias": false, "kernel_initializer": {"class_name": "VarianceScaling", "config": {"scale": 1.0, "mode": "fan_avg", "distribution": "uniform", "seed": null}}, "bias_initializer": {"class_name": "Zeros", "config": {}}, "kernel_regularizer": null, "bias_regularizer": null, "activity_regularizer": null, "kernel_constraint": null, "bias_constraint": null}, "inbound_nodes": [[["average_pooling2d_2", 0, 0, {}]]]}, {"name": "batch_normalization_13", "class_name": "BatchNormalization", "config": {"name": "batch_normalization_13", "trainable": false, "axis": 3, "momentum": 0.99, "epsilon": 0.001, "center": true, "scale": false, "beta_initializer": {"class_name": "Zeros", "config": {}}, "gamma_initializer": {"class_name": "Ones", "config": {}}, "moving_mean_initializer": {"class_name": "Zeros", "config": {}}, "moving_variance_initializer": {"class_name": "Ones", "config": {}}, "beta_regularizer": null, "gamma_regularizer": null, "beta_constraint": null, "gamma_constraint": null}, "inbound_nodes": [[["conv2d_13", 0, 0, {}]]]}, {"name": "batch_normalization_15", "class_name": "BatchNormalization", "config": {"name": "batch_normalization_15", "trainable": false, "axis": 3, "momentum": 0.99, "epsilon": 0.001, "center": true, "scale": false, "beta_initializer": {"class_name": "Zeros", "config": {}}, "gamma_initializer": {"class_name": "Ones", "config": {}}, "moving_mean_initializer": {"class_name": "Zeros", "config": {}}, "moving_variance_initializer": {"class_name": "Ones", "config": {}}, "beta_regularizer": null, "gamma_regularizer": null, "beta_constraint": null, "gamma_constraint": null}, "inbound_nodes": [[["conv2d_15", 0, 0, {}]]]}, {"name": "batch_normalization_18", "class_name": "BatchNormalization", "config": {"name": "batch_normalization_18", "trainable": false, "axis": 3, "momentum": 0.99, "epsilon": 0.001, "center": true, "scale": false, "beta_initializer": {"class_name": "Zeros", "config": {}}, "gamma_initializer": {"class_name": "Ones", "config": {}}, "moving_mean_initializer": {"class_name": "Zeros", "config": {}}, "moving_variance_initializer": {"class_name": "Ones", "config": {}}, "beta_regularizer": null, "gamma_regularizer": null, "beta_constraint": null, "gamma_constraint": null}, "inbound_nodes": [[["conv2d_18", 0, 0, {}]]]}, {"name": "batch_normalization_19", "class_name": "BatchNormalization", "config": {"name": "batch_normalization_19", "trainable": false, "axis": 3, "momentum": 0.99, "epsilon": 0.001, "center": true, "scale": false, "beta_initializer": {"class_name": "Zeros", "config": {}}, "gamma_initializer": {"class_name": "Ones", "config": {}}, "moving_mean_initializer": {"class_name": "Zeros", "config": {}}, "moving_variance_initializer": {"class_name": "Ones", "config": {}}, "beta_regularizer": null, "gamma_regularizer": null, "beta_constraint": null, "gamma_constraint": null}, "inbound_nodes": [[["conv2d_19", 0, 0, {}]]]}, {"name": "activation_13", "class_name": "Activation", "config": {"name": "activation_13", "trainable": false, "activation": "relu"}, "inbound_nodes": [[["batch_normalization_13", 0, 0, {}]]]}, {"name": "activation_15", "class_name": "Activation", "config": {"name": "activation_15", "trainable": false, "activation": "relu"}, "inbound_nodes": [[["batch_normalization_15", 0, 0, {}]]]}, {"name": "activation_18", "class_name": "Activation", "config": {"name": "activation_18", "trainable": false, "activation": "relu"}, "inbound_nodes": [[["batch_normalization_18", 0, 0, {}]]]}, {"name": "activation_19", "class_name": "Activation", "config": {"name": "activation_19", "trainable": false, "activation": "relu"}, "inbound_nodes": [[["batch_normalization_19", 0, 0, {}]]]}, {"name": "mixed1", "class_name": "Concatenate", "config": {"name": "mixed1", "trainable": false, "axis": 3}, "inbound_nodes": [[["activation_13", 0, 0, {}], ["activation_15", 0, 0, {}], ["activation_18", 0, 0, {}], ["activation_19", 0, 0, {}]]]}, {"name": "conv2d_23", "class_name": "Conv2D", "config": {"name": "conv2d_23", "trainable": false, "filters": 64, "kernel_size": [1, 1], "strides": [1, 1], "padding": "same", "data_format": "channels_last", "dilation_rate": [1, 1], "activation": "linear", "use_bias": false, "kernel_initializer": {"class_name": "VarianceScaling", "config": {"scale": 1.0, "mode": "fan_avg", "distribution": "uniform", "seed": null}}, "bias_initializer": {"class_name": "Zeros", "config": {}}, "kernel_regularizer": null, "bias_regularizer": null, "activity_regularizer": null, "kernel_constraint": null, "bias_constraint": null}, "inbound_nodes": [[["mixed1", 0, 0, {}]]]}, {"name": "batch_normalization_23", "class_name": "BatchNormalization", "config": {"name": "batch_normalization_23", "trainable": false, "axis": 3, "momentum": 0.99, "epsilon": 0.001, "center": true, "scale": false, "beta_initializer": {"class_name": "Zeros", "config": {}}, "gamma_initializer": {"class_name": "Ones", "config": {}}, "moving_mean_initializer": {"class_name": "Zeros", "config": {}}, "moving_variance_initializer": {"class_name": "Ones", "config": {}}, "beta_regularizer": null, "gamma_regularizer": null, "beta_constraint": null, "gamma_constraint": null}, "inbound_nodes": [[["conv2d_23", 0, 0, {}]]]}, {"name": "activation_23", "class_name": "Activation", "config": {"name": "activation_23", "trainable": false, "activation": "relu"}, "inbound_nodes": [[["batch_normalization_23", 0, 0, {}]]]}, {"name": "conv2d_21", "class_name": "Conv2D", "config": {"name": "conv2d_21", "trainable": false, "filters": 48, "kernel_size": [1, 1], "strides": [1, 1], "padding": "same", "data_format": "channels_last", "dilation_rate": [1, 1], "activation": "linear", "use_bias": false, "kernel_initializer": {"class_name": "VarianceScaling", "config": {"scale": 1.0, "mode": "fan_avg", "distribution": "uniform", "seed": null}}, "bias_initializer": {"class_name": "Zeros", "config": {}}, "kernel_regularizer": null, "bias_regularizer": null, "activity_regularizer": null, "kernel_constraint": null, "bias_constraint": null}, "inbound_nodes": [[["mixed1", 0, 0, {}]]]}, {"name": "conv2d_24", "class_name": "Conv2D", "config": {"name": "conv2d_24", "trainable": false, "filters": 96, "kernel_size": [3, 3], "strides": [1, 1], "padding": "same", "data_format": "channels_last", "dilation_rate": [1, 1], "activation": "linear", "use_bias": false, "kernel_initializer": {"class_name": "VarianceScaling", "config": {"scale": 1.0, "mode": "fan_avg", "distribution": "uniform", "seed": null}}, "bias_initializer": {"class_name": "Zeros", "config": {}}, "kernel_regularizer": null, "bias_regularizer": null, "activity_regularizer": null, "kernel_constraint": null, "bias_constraint": null}, "inbound_nodes": [[["activation_23", 0, 0, {}]]]}, {"name": "batch_normalization_21", "class_name": "BatchNormalization", "config": {"name": "batch_normalization_21", "trainable": false, "axis": 3, "momentum": 0.99, "epsilon": 0.001, "center": true, "scale": false, "beta_initializer": {"class_name": "Zeros", "config": {}}, "gamma_initializer": {"class_name": "Ones", "config": {}}, "moving_mean_initializer": {"class_name": "Zeros", "config": {}}, "moving_variance_initializer": {"class_name": "Ones", "config": {}}, "beta_regularizer": null, "gamma_regularizer": null, "beta_constraint": null, "gamma_constraint": null}, "inbound_nodes": [[["conv2d_21", 0, 0, {}]]]}, {"name": "batch_normalization_24", "class_name": "BatchNormalization", "config": {"name": "batch_normalization_24", "trainable": false, "axis": 3, "momentum": 0.99, "epsilon": 0.001, "center": true, "scale": false, "beta_initializer": {"class_name": "Zeros", "config": {}}, "gamma_initializer": {"class_name": "Ones", "config": {}}, "moving_mean_initializer": {"class_name": "Zeros", "config": {}}, "moving_variance_initializer": {"class_name": "Ones", "config": {}}, "beta_regularizer": null, "gamma_regularizer": null, "beta_constraint": null, "gamma_constraint": null}, "inbound_nodes": [[["conv2d_24", 0, 0, {}]]]}, {"name": "activation_21", "class_name": "Activation", "config": {"name": "activation_21", "trainable": false, "activation": "relu"}, "inbound_nodes": [[["batch_normalization_21", 0, 0, {}]]]}, {"name": "activation_24", "class_name": "Activation", "config": {"name": "activation_24", "trainable": false, "activation": "relu"}, "inbound_nodes": [[["batch_normalization_24", 0, 0, {}]]]}, {"name": "average_pooling2d_3", "class_name": "AveragePooling2D", "config": {"name": "average_pooling2d_3", "trainable": false, "pool_size": [3, 3], "padding": "same", "strides": [1, 1], "data_format": "channels_last"}, "inbound_nodes": [[["mixed1", 0, 0, {}]]]}, {"name": "conv2d_20", "class_name": "Conv2D", "config": {"name": "conv2d_20", "trainable": false, "filters": 64, "kernel_size": [1, 1], "strides": [1, 1], "padding": "same", "data_format": "channels_last", "dilation_rate": [1, 1], "activation": "linear", "use_bias": false, "kernel_initializer": {"class_name": "VarianceScaling", "config": {"scale": 1.0, "mode": "fan_avg", "distribution": "uniform", "seed": null}}, "bias_initializer": {"class_name": "Zeros", "config": {}}, "kernel_regularizer": null, "bias_regularizer": null, "activity_regularizer": null, "kernel_constraint": null, "bias_constraint": null}, "inbound_nodes": [[["mixed1", 0, 0, {}]]]}, {"name": "conv2d_22", "class_name": "Conv2D", "config": {"name": "conv2d_22", "trainable": false, "filters": 64, "kernel_size": [5, 5], "strides": [1, 1], "padding": "same", "data_format": "channels_last", "dilation_rate": [1, 1], "activation": "linear", "use_bias": false, "kernel_initializer": {"class_name": "VarianceScaling", "config": {"scale": 1.0, "mode": "fan_avg", "distribution": "uniform", "seed": null}}, "bias_initializer": {"class_name": "Zeros", "config": {}}, "kernel_regularizer": null, "bias_regularizer": null, "activity_regularizer": null, "kernel_constraint": null, "bias_constraint": null}, "inbound_nodes": [[["activation_21", 0, 0, {}]]]}, {"name": "conv2d_25", "class_name": "Conv2D", "config": {"name": "conv2d_25", "trainable": false, "filters": 96, "kernel_size": [3, 3], "strides": [1, 1], "padding": "same", "data_format": "channels_last", "dilation_rate": [1, 1], "activation": "linear", "use_bias": false, "kernel_initializer": {"class_name": "VarianceScaling", "config": {"scale": 1.0, "mode": "fan_avg", "distribution": "uniform", "seed": null}}, "bias_initializer": {"class_name": "Zeros", "config": {}}, "kernel_regularizer": null, "bias_regularizer": null, "activity_regularizer": null, "kernel_constraint": null, "bias_constraint": null}, "inbound_nodes": [[["activation_24", 0, 0, {}]]]}, {"name": "conv2d_26", "class_name": "Conv2D", "config": {"name": "conv2d_26", "trainable": false, "filters": 64, "kernel_size": [1, 1], "strides": [1, 1], "padding": "same", "data_format": "channels_last", "dilation_rate": [1, 1], "activation": "linear", "use_bias": false, "kernel_initializer": {"class_name": "VarianceScaling", "config": {"scale": 1.0, "mode": "fan_avg", "distribution": "uniform", "seed": null}}, "bias_initializer": {"class_name": "Zeros", "config": {}}, "kernel_regularizer": null, "bias_regularizer": null, "activity_regularizer": null, "kernel_constraint": null, "bias_constraint": null}, "inbound_nodes": [[["average_pooling2d_3", 0, 0, {}]]]}, {"name": "batch_normalization_20", "class_name": "BatchNormalization", "config": {"name": "batch_normalization_20", "trainable": false, "axis": 3, "momentum": 0.99, "epsilon": 0.001, "center": true, "scale": false, "beta_initializer": {"class_name": "Zeros", "config": {}}, "gamma_initializer": {"class_name": "Ones", "config": {}}, "moving_mean_initializer": {"class_name": "Zeros", "config": {}}, "moving_variance_initializer": {"class_name": "Ones", "config": {}}, "beta_regularizer": null, "gamma_regularizer": null, "beta_constraint": null, "gamma_constraint": null}, "inbound_nodes": [[["conv2d_20", 0, 0, {}]]]}, {"name": "batch_normalization_22", "class_name": "BatchNormalization", "config": {"name": "batch_normalization_22", "trainable": false, "axis": 3, "momentum": 0.99, "epsilon": 0.001, "center": true, "scale": false, "beta_initializer": {"class_name": "Zeros", "config": {}}, "gamma_initializer": {"class_name": "Ones", "config": {}}, "moving_mean_initializer": {"class_name": "Zeros", "config": {}}, "moving_variance_initializer": {"class_name": "Ones", "config": {}}, "beta_regularizer": null, "gamma_regularizer": null, "beta_constraint": null, "gamma_constraint": null}, "inbound_nodes": [[["conv2d_22", 0, 0, {}]]]}, {"name": "batch_normalization_25", "class_name": "BatchNormalization", "config": {"name": "batch_normalization_25", "trainable": false, "axis": 3, "momentum": 0.99, "epsilon": 0.001, "center": true, "scale": false, "beta_initializer": {"class_name": "Zeros", "config": {}}, "gamma_initializer": {"class_name": "Ones", "config": {}}, "moving_mean_initializer": {"class_name": "Zeros", "config": {}}, "moving_variance_initializer": {"class_name": "Ones", "config": {}}, "beta_regularizer": null, "gamma_regularizer": null, "beta_constraint": null, "gamma_constraint": null}, "inbound_nodes": [[["conv2d_25", 0, 0, {}]]]}, {"name": "batch_normalization_26", "class_name": "BatchNormalization", "config": {"name": "batch_normalization_26", "trainable": false, "axis": 3, "momentum": 0.99, "epsilon": 0.001, "center": true, "scale": false, "beta_initializer": {"class_name": "Zeros", "config": {}}, "gamma_initializer": {"class_name": "Ones", "config": {}}, "moving_mean_initializer": {"class_name": "Zeros", "config": {}}, "moving_variance_initializer": {"class_name": "Ones", "config": {}}, "beta_regularizer": null, "gamma_regularizer": null, "beta_constraint": null, "gamma_constraint": null}, "inbound_nodes": [[["conv2d_26", 0, 0, {}]]]}, {"name": "activation_20", "class_name": "Activation", "config": {"name": "activation_20", "trainable": false, "activation": "relu"}, "inbound_nodes": [[["batch_normalization_20", 0, 0, {}]]]}, {"name": "activation_22", "class_name": "Activation", "config": {"name": "activation_22", "trainable": false, "activation": "relu"}, "inbound_nodes": [[["batch_normalization_22", 0, 0, {}]]]}, {"name": "activation_25", "class_name": "Activation", "config": {"name": "activation_25", "trainable": false, "activation": "relu"}, "inbound_nodes": [[["batch_normalization_25", 0, 0, {}]]]}, {"name": "activation_26", "class_name": "Activation", "config": {"name": "activation_26", "trainable": false, "activation": "relu"}, "inbound_nodes": [[["batch_normalization_26", 0, 0, {}]]]}, {"name": "mixed2", "class_name": "Concatenate", "config": {"name": "mixed2", "trainable": false, "axis": 3}, "inbound_nodes": [[["activation_20", 0, 0, {}], ["activation_22", 0, 0, {}], ["activation_25", 0, 0, {}], ["activation_26", 0, 0, {}]]]}, {"name": "conv2d_28", "class_name": "Conv2D", "config": {"name": "conv2d_28", "trainable": false, "filters": 64, "kernel_size": [1, 1], "strides": [1, 1], "padding": "same", "data_format": "channels_last", "dilation_rate": [1, 1], "activation": "linear", "use_bias": false, "kernel_initializer": {"class_name": "VarianceScaling", "config": {"scale": 1.0, "mode": "fan_avg", "distribution": "uniform", "seed": null}}, "bias_initializer": {"class_name": "Zeros", "config": {}}, "kernel_regularizer": null, "bias_regularizer": null, "activity_regularizer": null, "kernel_constraint": null, "bias_constraint": null}, "inbound_nodes": [[["mixed2", 0, 0, {}]]]}, {"name": "batch_normalization_28", "class_name": "BatchNormalization", "config": {"name": "batch_normalization_28", "trainable": false, "axis": 3, "momentum": 0.99, "epsilon": 0.001, "center": true, "scale": false, "beta_initializer": {"class_name": "Zeros", "config": {}}, "gamma_initializer": {"class_name": "Ones", "config": {}}, "moving_mean_initializer": {"class_name": "Zeros", "config": {}}, "moving_variance_initializer": {"class_name": "Ones", "config": {}}, "beta_regularizer": null, "gamma_regularizer": null, "beta_constraint": null, "gamma_constraint": null}, "inbound_nodes": [[["conv2d_28", 0, 0, {}]]]}, {"name": "activation_28", "class_name": "Activation", "config": {"name": "activation_28", "trainable": false, "activation": "relu"}, "inbound_nodes": [[["batch_normalization_28", 0, 0, {}]]]}, {"name": "conv2d_29", "class_name": "Conv2D", "config": {"name": "conv2d_29", "trainable": false, "filters": 96, "kernel_size": [3, 3], "strides": [1, 1], "padding": "same", "data_format": "channels_last", "dilation_rate": [1, 1], "activation": "linear", "use_bias": false, "kernel_initializer": {"class_name": "VarianceScaling", "config": {"scale": 1.0, "mode": "fan_avg", "distribution": "uniform", "seed": null}}, "bias_initializer": {"class_name": "Zeros", "config": {}}, "kernel_regularizer": null, "bias_regularizer": null, "activity_regularizer": null, "kernel_constraint": null, "bias_constraint": null}, "inbound_nodes": [[["activation_28", 0, 0, {}]]]}, {"name": "batch_normalization_29", "class_name": "BatchNormalization", "config": {"name": "batch_normalization_29", "trainable": false, "axis": 3, "momentum": 0.99, "epsilon": 0.001, "center": true, "scale": false, "beta_initializer": {"class_name": "Zeros", "config": {}}, "gamma_initializer": {"class_name": "Ones", "config": {}}, "moving_mean_initializer": {"class_name": "Zeros", "config": {}}, "moving_variance_initializer": {"class_name": "Ones", "config": {}}, "beta_regularizer": null, "gamma_regularizer": null, "beta_constraint": null, "gamma_constraint": null}, "inbound_nodes": [[["conv2d_29", 0, 0, {}]]]}, {"name": "activation_29", "class_name": "Activation", "config": {"name": "activation_29", "trainable": false, "activation": "relu"}, "inbound_nodes": [[["batch_normalization_29", 0, 0, {}]]]}, {"name": "conv2d_27", "class_name": "Conv2D", "config": {"name": "conv2d_27", "trainable": false, "filters": 384, "kernel_size": [3, 3], "strides": [2, 2], "padding": "valid", "data_format": "channels_last", "dilation_rate": [1, 1], "activation": "linear", "use_bias": false, "kernel_initializer": {"class_name": "VarianceScaling", "config": {"scale": 1.0, "mode": "fan_avg", "distribution": "uniform", "seed": null}}, "bias_initializer": {"class_name": "Zeros", "config": {}}, "kernel_regularizer": null, "bias_regularizer": null, "activity_regularizer": null, "kernel_constraint": null, "bias_constraint": null}, "inbound_nodes": [[["mixed2", 0, 0, {}]]]}, {"name": "conv2d_30", "class_name": "Conv2D", "config": {"name": "conv2d_30", "trainable": false, "filters": 96, "kernel_size": [3, 3], "strides": [2, 2], "padding": "valid", "data_format": "channels_last", "dilation_rate": [1, 1], "activation": "linear", "use_bias": false, "kernel_initializer": {"class_name": "VarianceScaling", "config": {"scale": 1.0, "mode": "fan_avg", "distribution": "uniform", "seed": null}}, "bias_initializer": {"class_name": "Zeros", "config": {}}, "kernel_regularizer": null, "bias_regularizer": null, "activity_regularizer": null, "kernel_constraint": null, "bias_constraint": null}, "inbound_nodes": [[["activation_29", 0, 0, {}]]]}, {"name": "batch_normalization_27", "class_name": "BatchNormalization", "config": {"name": "batch_normalization_27", "trainable": false, "axis": 3, "momentum": 0.99, "epsilon": 0.001, "center": true, "scale": false, "beta_initializer": {"class_name": "Zeros", "config": {}}, "gamma_initializer": {"class_name": "Ones", "config": {}}, "moving_mean_initializer": {"class_name": "Zeros", "config": {}}, "moving_variance_initializer": {"class_name": "Ones", "config": {}}, "beta_regularizer": null, "gamma_regularizer": null, "beta_constraint": null, "gamma_constraint": null}, "inbound_nodes": [[["conv2d_27", 0, 0, {}]]]}, {"name": "batch_normalization_30", "class_name": "BatchNormalization", "config": {"name": "batch_normalization_30", "trainable": false, "axis": 3, "momentum": 0.99, "epsilon": 0.001, "center": true, "scale": false, "beta_initializer": {"class_name": "Zeros", "config": {}}, "gamma_initializer": {"class_name": "Ones", "config": {}}, "moving_mean_initializer": {"class_name": "Zeros", "config": {}}, "moving_variance_initializer": {"class_name": "Ones", "config": {}}, "beta_regularizer": null, "gamma_regularizer": null, "beta_constraint": null, "gamma_constraint": null}, "inbound_nodes": [[["conv2d_30", 0, 0, {}]]]}, {"name": "activation_27", "class_name": "Activation", "config": {"name": "activation_27", "trainable": false, "activation": "relu"}, "inbound_nodes": [[["batch_normalization_27", 0, 0, {}]]]}, {"name": "activation_30", "class_name": "Activation", "config": {"name": "activation_30", "trainable": false, "activation": "relu"}, "inbound_nodes": [[["batch_normalization_30", 0, 0, {}]]]}, {"name": "max_pooling2d_3", "class_name": "MaxPooling2D", "config": {"name": "max_pooling2d_3", "trainable": false, "pool_size": [3, 3], "padding": "valid", "strides": [2, 2], "data_format": "channels_last"}, "inbound_nodes": [[["mixed2", 0, 0, {}]]]}, {"name": "mixed3", "class_name": "Concatenate", "config": {"name": "mixed3", "trainable": false, "axis": 3}, "inbound_nodes": [[["activation_27", 0, 0, {}], ["activation_30", 0, 0, {}], ["max_pooling2d_3", 0, 0, {}]]]}, {"name": "conv2d_35", "class_name": "Conv2D", "config": {"name": "conv2d_35", "trainable": false, "filters": 128, "kernel_size": [1, 1], "strides": [1, 1], "padding": "same", "data_format": "channels_last", "dilation_rate": [1, 1], "activation": "linear", "use_bias": false, "kernel_initializer": {"class_name": "VarianceScaling", "config": {"scale": 1.0, "mode": "fan_avg", "distribution": "uniform", "seed": null}}, "bias_initializer": {"class_name": "Zeros", "config": {}}, "kernel_regularizer": null, "bias_regularizer": null, "activity_regularizer": null, "kernel_constraint": null, "bias_constraint": null}, "inbound_nodes": [[["mixed3", 0, 0, {}]]]}, {"name": "batch_normalization_35", "class_name": "BatchNormalization", "config": {"name": "batch_normalization_35", "trainable": false, "axis": 3, "momentum": 0.99, "epsilon": 0.001, "center": true, "scale": false, "beta_initializer": {"class_name": "Zeros", "config": {}}, "gamma_initializer": {"class_name": "Ones", "config": {}}, "moving_mean_initializer": {"class_name": "Zeros", "config": {}}, "moving_variance_initializer": {"class_name": "Ones", "config": {}}, "beta_regularizer": null, "gamma_regularizer": null, "beta_constraint": null, "gamma_constraint": null}, "inbound_nodes": [[["conv2d_35", 0, 0, {}]]]}, {"name": "activation_35", "class_name": "Activation", "config": {"name": "activation_35", "trainable": false, "activation": "relu"}, "inbound_nodes": [[["batch_normalization_35", 0, 0, {}]]]}, {"name": "conv2d_36", "class_name": "Conv2D", "config": {"name": "conv2d_36", "trainable": false, "filters": 128, "kernel_size": [7, 1], "strides": [1, 1], "padding": "same", "data_format": "channels_last", "dilation_rate": [1, 1], "activation": "linear", "use_bias": false, "kernel_initializer": {"class_name": "VarianceScaling", "config": {"scale": 1.0, "mode": "fan_avg", "distribution": "uniform", "seed": null}}, "bias_initializer": {"class_name": "Zeros", "config": {}}, "kernel_regularizer": null, "bias_regularizer": null, "activity_regularizer": null, "kernel_constraint": null, "bias_constraint": null}, "inbound_nodes": [[["activation_35", 0, 0, {}]]]}, {"name": "batch_normalization_36", "class_name": "BatchNormalization", "config": {"name": "batch_normalization_36", "trainable": false, "axis": 3, "momentum": 0.99, "epsilon": 0.001, "center": true, "scale": false, "beta_initializer": {"class_name": "Zeros", "config": {}}, "gamma_initializer": {"class_name": "Ones", "config": {}}, "moving_mean_initializer": {"class_name": "Zeros", "config": {}}, "moving_variance_initializer": {"class_name": "Ones", "config": {}}, "beta_regularizer": null, "gamma_regularizer": null, "beta_constraint": null, "gamma_constraint": null}, "inbound_nodes": [[["conv2d_36", 0, 0, {}]]]}, {"name": "activation_36", "class_name": "Activation", "config": {"name": "activation_36", "trainable": false, "activation": "relu"}, "inbound_nodes": [[["batch_normalization_36", 0, 0, {}]]]}, {"name": "conv2d_32", "class_name": "Conv2D", "config": {"name": "conv2d_32", "trainable": false, "filters": 128, "kernel_size": [1, 1], "strides": [1, 1], "padding": "same", "data_format": "channels_last", "dilation_rate": [1, 1], "activation": "linear", "use_bias": false, "kernel_initializer": {"class_name": "VarianceScaling", "config": {"scale": 1.0, "mode": "fan_avg", "distribution": "uniform", "seed": null}}, "bias_initializer": {"class_name": "Zeros", "config": {}}, "kernel_regularizer": null, "bias_regularizer": null, "activity_regularizer": null, "kernel_constraint": null, "bias_constraint": null}, "inbound_nodes": [[["mixed3", 0, 0, {}]]]}, {"name": "conv2d_37", "class_name": "Conv2D", "config": {"name": "conv2d_37", "trainable": false, "filters": 128, "kernel_size": [1, 7], "strides": [1, 1], "padding": "same", "data_format": "channels_last", "dilation_rate": [1, 1], "activation": "linear", "use_bias": false, "kernel_initializer": {"class_name": "VarianceScaling", "config": {"scale": 1.0, "mode": "fan_avg", "distribution": "uniform", "seed": null}}, "bias_initializer": {"class_name": "Zeros", "config": {}}, "kernel_regularizer": null, "bias_regularizer": null, "activity_regularizer": null, "kernel_constraint": null, "bias_constraint": null}, "inbound_nodes": [[["activation_36", 0, 0, {}]]]}, {"name": "batch_normalization_32", "class_name": "BatchNormalization", "config": {"name": "batch_normalization_32", "trainable": false, "axis": 3, "momentum": 0.99, "epsilon": 0.001, "center": true, "scale": false, "beta_initializer": {"class_name": "Zeros", "config": {}}, "gamma_initializer": {"class_name": "Ones", "config": {}}, "moving_mean_initializer": {"class_name": "Zeros", "config": {}}, "moving_variance_initializer": {"class_name": "Ones", "config": {}}, "beta_regularizer": null, "gamma_regularizer": null, "beta_constraint": null, "gamma_constraint": null}, "inbound_nodes": [[["conv2d_32", 0, 0, {}]]]}, {"name": "batch_normalization_37", "class_name": "BatchNormalization", "config": {"name": "batch_normalization_37", "trainable": false, "axis": 3, "momentum": 0.99, "epsilon": 0.001, "center": true, "scale": false, "beta_initializer": {"class_name": "Zeros", "config": {}}, "gamma_initializer": {"class_name": "Ones", "config": {}}, "moving_mean_initializer": {"class_name": "Zeros", "config": {}}, "moving_variance_initializer": {"class_name": "Ones", "config": {}}, "beta_regularizer": null, "gamma_regularizer": null, "beta_constraint": null, "gamma_constraint": null}, "inbound_nodes": [[["conv2d_37", 0, 0, {}]]]}, {"name": "activation_32", "class_name": "Activation", "config": {"name": "activation_32", "trainable": false, "activation": "relu"}, "inbound_nodes": [[["batch_normalization_32", 0, 0, {}]]]}, {"name": "activation_37", "class_name": "Activation", "config": {"name": "activation_37", "trainable": false, "activation": "relu"}, "inbound_nodes": [[["batch_normalization_37", 0, 0, {}]]]}, {"name": "conv2d_33", "class_name": "Conv2D", "config": {"name": "conv2d_33", "trainable": false, "filters": 128, "kernel_size": [1, 7], "strides": [1, 1], "padding": "same", "data_format": "channels_last", "dilation_rate": [1, 1], "activation": "linear", "use_bias": false, "kernel_initializer": {"class_name": "VarianceScaling", "config": {"scale": 1.0, "mode": "fan_avg", "distribution": "uniform", "seed": null}}, "bias_initializer": {"class_name": "Zeros", "config": {}}, "kernel_regularizer": null, "bias_regularizer": null, "activity_regularizer": null, "kernel_constraint": null, "bias_constraint": null}, "inbound_nodes": [[["activation_32", 0, 0, {}]]]}, {"name": "conv2d_38", "class_name": "Conv2D", "config": {"name": "conv2d_38", "trainable": false, "filters": 128, "kernel_size": [7, 1], "strides": [1, 1], "padding": "same", "data_format": "channels_last", "dilation_rate": [1, 1], "activation": "linear", "use_bias": false, "kernel_initializer": {"class_name": "VarianceScaling", "config": {"scale": 1.0, "mode": "fan_avg", "distribution": "uniform", "seed": null}}, "bias_initializer": {"class_name": "Zeros", "config": {}}, "kernel_regularizer": null, "bias_regularizer": null, "activity_regularizer": null, "kernel_constraint": null, "bias_constraint": null}, "inbound_nodes": [[["activation_37", 0, 0, {}]]]}, {"name": "batch_normalization_33", "class_name": "BatchNormalization", "config": {"name": "batch_normalization_33", "trainable": false, "axis": 3, "momentum": 0.99, "epsilon": 0.001, "center": true, "scale": false, "beta_initializer": {"class_name": "Zeros", "config": {}}, "gamma_initializer": {"class_name": "Ones", "config": {}}, "moving_mean_initializer": {"class_name": "Zeros", "config": {}}, "moving_variance_initializer": {"class_name": "Ones", "config": {}}, "beta_regularizer": null, "gamma_regularizer": null, "beta_constraint": null, "gamma_constraint": null}, "inbound_nodes": [[["conv2d_33", 0, 0, {}]]]}, {"name": "batch_normalization_38", "class_name": "BatchNormalization", "config": {"name": "batch_normalization_38", "trainable": false, "axis": 3, "momentum": 0.99, "epsilon": 0.001, "center": true, "scale": false, "beta_initializer": {"class_name": "Zeros", "config": {}}, "gamma_initializer": {"class_name": "Ones", "config": {}}, "moving_mean_initializer": {"class_name": "Zeros", "config": {}}, "moving_variance_initializer": {"class_name": "Ones", "config": {}}, "beta_regularizer": null, "gamma_regularizer": null, "beta_constraint": null, "gamma_constraint": null}, "inbound_nodes": [[["conv2d_38", 0, 0, {}]]]}, {"name": "activation_33", "class_name": "Activation", "config": {"name": "activation_33", "trainable": false, "activation": "relu"}, "inbound_nodes": [[["batch_normalization_33", 0, 0, {}]]]}, {"name": "activation_38", "class_name": "Activation", "config": {"name": "activation_38", "trainable": false, "activation": "relu"}, "inbound_nodes": [[["batch_normalization_38", 0, 0, {}]]]}, {"name": "average_pooling2d_4", "class_name": "AveragePooling2D", "config": {"name": "average_pooling2d_4", "trainable": false, "pool_size": [3, 3], "padding": "same", "strides": [1, 1], "data_format": "channels_last"}, "inbound_nodes": [[["mixed3", 0, 0, {}]]]}, {"name": "conv2d_31", "class_name": "Conv2D", "config": {"name": "conv2d_31", "trainable": false, "filters": 192, "kernel_size": [1, 1], "strides": [1, 1], "padding": "same", "data_format": "channels_last", "dilation_rate": [1, 1], "activation": "linear", "use_bias": false, "kernel_initializer": {"class_name": "VarianceScaling", "config": {"scale": 1.0, "mode": "fan_avg", "distribution": "uniform", "seed": null}}, "bias_initializer": {"class_name": "Zeros", "config": {}}, "kernel_regularizer": null, "bias_regularizer": null, "activity_regularizer": null, "kernel_constraint": null, "bias_constraint": null}, "inbound_nodes": [[["mixed3", 0, 0, {}]]]}, {"name": "conv2d_34", "class_name": "Conv2D", "config": {"name": "conv2d_34", "trainable": false, "filters": 192, "kernel_size": [7, 1], "strides": [1, 1], "padding": "same", "data_format": "channels_last", "dilation_rate": [1, 1], "activation": "linear", "use_bias": false, "kernel_initializer": {"class_name": "VarianceScaling", "config": {"scale": 1.0, "mode": "fan_avg", "distribution": "uniform", "seed": null}}, "bias_initializer": {"class_name": "Zeros", "config": {}}, "kernel_regularizer": null, "bias_regularizer": null, "activity_regularizer": null, "kernel_constraint": null, "bias_constraint": null}, "inbound_nodes": [[["activation_33", 0, 0, {}]]]}, {"name": "conv2d_39", "class_name": "Conv2D", "config": {"name": "conv2d_39", "trainable": false, "filters": 192, "kernel_size": [1, 7], "strides": [1, 1], "padding": "same", "data_format": "channels_last", "dilation_rate": [1, 1], "activation": "linear", "use_bias": false, "kernel_initializer": {"class_name": "VarianceScaling", "config": {"scale": 1.0, "mode": "fan_avg", "distribution": "uniform", "seed": null}}, "bias_initializer": {"class_name": "Zeros", "config": {}}, "kernel_regularizer": null, "bias_regularizer": null, "activity_regularizer": null, "kernel_constraint": null, "bias_constraint": null}, "inbound_nodes": [[["activation_38", 0, 0, {}]]]}, {"name": "conv2d_40", "class_name": "Conv2D", "config": {"name": "conv2d_40", "trainable": false, "filters": 192, "kernel_size": [1, 1], "strides": [1, 1], "padding": "same", "data_format": "channels_last", "dilation_rate": [1, 1], "activation": "linear", "use_bias": false, "kernel_initializer": {"class_name": "VarianceScaling", "config": {"scale": 1.0, "mode": "fan_avg", "distribution": "uniform", "seed": null}}, "bias_initializer": {"class_name": "Zeros", "config": {}}, "kernel_regularizer": null, "bias_regularizer": null, "activity_regularizer": null, "kernel_constraint": null, "bias_constraint": null}, "inbound_nodes": [[["average_pooling2d_4", 0, 0, {}]]]}, {"name": "batch_normalization_31", "class_name": "BatchNormalization", "config": {"name": "batch_normalization_31", "trainable": false, "axis": 3, "momentum": 0.99, "epsilon": 0.001, "center": true, "scale": false, "beta_initializer": {"class_name": "Zeros", "config": {}}, "gamma_initializer": {"class_name": "Ones", "config": {}}, "moving_mean_initializer": {"class_name": "Zeros", "config": {}}, "moving_variance_initializer": {"class_name": "Ones", "config": {}}, "beta_regularizer": null, "gamma_regularizer": null, "beta_constraint": null, "gamma_constraint": null}, "inbound_nodes": [[["conv2d_31", 0, 0, {}]]]}, {"name": "batch_normalization_34", "class_name": "BatchNormalization", "config": {"name": "batch_normalization_34", "trainable": false, "axis": 3, "momentum": 0.99, "epsilon": 0.001, "center": true, "scale": false, "beta_initializer": {"class_name": "Zeros", "config": {}}, "gamma_initializer": {"class_name": "Ones", "config": {}}, "moving_mean_initializer": {"class_name": "Zeros", "config": {}}, "moving_variance_initializer": {"class_name": "Ones", "config": {}}, "beta_regularizer": null, "gamma_regularizer": null, "beta_constraint": null, "gamma_constraint": null}, "inbound_nodes": [[["conv2d_34", 0, 0, {}]]]}, {"name": "batch_normalization_39", "class_name": "BatchNormalization", "config": {"name": "batch_normalization_39", "trainable": false, "axis": 3, "momentum": 0.99, "epsilon": 0.001, "center": true, "scale": false, "beta_initializer": {"class_name": "Zeros", "config": {}}, "gamma_initializer": {"class_name": "Ones", "config": {}}, "moving_mean_initializer": {"class_name": "Zeros", "config": {}}, "moving_variance_initializer": {"class_name": "Ones", "config": {}}, "beta_regularizer": null, "gamma_regularizer": null, "beta_constraint": null, "gamma_constraint": null}, "inbound_nodes": [[["conv2d_39", 0, 0, {}]]]}, {"name": "batch_normalization_40", "class_name": "BatchNormalization", "config": {"name": "batch_normalization_40", "trainable": false, "axis": 3, "momentum": 0.99, "epsilon": 0.001, "center": true, "scale": false, "beta_initializer": {"class_name": "Zeros", "config": {}}, "gamma_initializer": {"class_name": "Ones", "config": {}}, "moving_mean_initializer": {"class_name": "Zeros", "config": {}}, "moving_variance_initializer": {"class_name": "Ones", "config": {}}, "beta_regularizer": null, "gamma_regularizer": null, "beta_constraint": null, "gamma_constraint": null}, "inbound_nodes": [[["conv2d_40", 0, 0, {}]]]}, {"name": "activation_31", "class_name": "Activation", "config": {"name": "activation_31", "trainable": false, "activation": "relu"}, "inbound_nodes": [[["batch_normalization_31", 0, 0, {}]]]}, {"name": "activation_34", "class_name": "Activation", "config": {"name": "activation_34", "trainable": false, "activation": "relu"}, "inbound_nodes": [[["batch_normalization_34", 0, 0, {}]]]}, {"name": "activation_39", "class_name": "Activation", "config": {"name": "activation_39", "trainable": false, "activation": "relu"}, "inbound_nodes": [[["batch_normalization_39", 0, 0, {}]]]}, {"name": "activation_40", "class_name": "Activation", "config": {"name": "activation_40", "trainable": false, "activation": "relu"}, "inbound_nodes": [[["batch_normalization_40", 0, 0, {}]]]}, {"name": "mixed4", "class_name": "Concatenate", "config": {"name": "mixed4", "trainable": false, "axis": 3}, "inbound_nodes": [[["activation_31", 0, 0, {}], ["activation_34", 0, 0, {}], ["activation_39", 0, 0, {}], ["activation_40", 0, 0, {}]]]}, {"name": "conv2d_45", "class_name": "Conv2D", "config": {"name": "conv2d_45", "trainable": false, "filters": 160, "kernel_size": [1, 1], "strides": [1, 1], "padding": "same", "data_format": "channels_last", "dilation_rate": [1, 1], "activation": "linear", "use_bias": false, "kernel_initializer": {"class_name": "VarianceScaling", "config": {"scale": 1.0, "mode": "fan_avg", "distribution": "uniform", "seed": null}}, "bias_initializer": {"class_name": "Zeros", "config": {}}, "kernel_regularizer": null, "bias_regularizer": null, "activity_regularizer": null, "kernel_constraint": null, "bias_constraint": null}, "inbound_nodes": [[["mixed4", 0, 0, {}]]]}, {"name": "batch_normalization_45", "class_name": "BatchNormalization", "config": {"name": "batch_normalization_45", "trainable": false, "axis": 3, "momentum": 0.99, "epsilon": 0.001, "center": true, "scale": false, "beta_initializer": {"class_name": "Zeros", "config": {}}, "gamma_initializer": {"class_name": "Ones", "config": {}}, "moving_mean_initializer": {"class_name": "Zeros", "config": {}}, "moving_variance_initializer": {"class_name": "Ones", "config": {}}, "beta_regularizer": null, "gamma_regularizer": null, "beta_constraint": null, "gamma_constraint": null}, "inbound_nodes": [[["conv2d_45", 0, 0, {}]]]}, {"name": "activation_45", "class_name": "Activation", "config": {"name": "activation_45", "trainable": false, "activation": "relu"}, "inbound_nodes": [[["batch_normalization_45", 0, 0, {}]]]}, {"name": "conv2d_46", "class_name": "Conv2D", "config": {"name": "conv2d_46", "trainable": false, "filters": 160, "kernel_size": [7, 1], "strides": [1, 1], "padding": "same", "data_format": "channels_last", "dilation_rate": [1, 1], "activation": "linear", "use_bias": false, "kernel_initializer": {"class_name": "VarianceScaling", "config": {"scale": 1.0, "mode": "fan_avg", "distribution": "uniform", "seed": null}}, "bias_initializer": {"class_name": "Zeros", "config": {}}, "kernel_regularizer": null, "bias_regularizer": null, "activity_regularizer": null, "kernel_constraint": null, "bias_constraint": null}, "inbound_nodes": [[["activation_45", 0, 0, {}]]]}, {"name": "batch_normalization_46", "class_name": "BatchNormalization", "config": {"name": "batch_normalization_46", "trainable": false, "axis": 3, "momentum": 0.99, "epsilon": 0.001, "center": true, "scale": false, "beta_initializer": {"class_name": "Zeros", "config": {}}, "gamma_initializer": {"class_name": "Ones", "config": {}}, "moving_mean_initializer": {"class_name": "Zeros", "config": {}}, "moving_variance_initializer": {"class_name": "Ones", "config": {}}, "beta_regularizer": null, "gamma_regularizer": null, "beta_constraint": null, "gamma_constraint": null}, "inbound_nodes": [[["conv2d_46", 0, 0, {}]]]}, {"name": "activation_46", "class_name": "Activation", "config": {"name": "activation_46", "trainable": false, "activation": "relu"}, "inbound_nodes": [[["batch_normalization_46", 0, 0, {}]]]}, {"name": "conv2d_42", "class_name": "Conv2D", "config": {"name": "conv2d_42", "trainable": false, "filters": 160, "kernel_size": [1, 1], "strides": [1, 1], "padding": "same", "data_format": "channels_last", "dilation_rate": [1, 1], "activation": "linear", "use_bias": false, "kernel_initializer": {"class_name": "VarianceScaling", "config": {"scale": 1.0, "mode": "fan_avg", "distribution": "uniform", "seed": null}}, "bias_initializer": {"class_name": "Zeros", "config": {}}, "kernel_regularizer": null, "bias_regularizer": null, "activity_regularizer": null, "kernel_constraint": null, "bias_constraint": null}, "inbound_nodes": [[["mixed4", 0, 0, {}]]]}, {"name": "conv2d_47", "class_name": "Conv2D", "config": {"name": "conv2d_47", "trainable": false, "filters": 160, "kernel_size": [1, 7], "strides": [1, 1], "padding": "same", "data_format": "channels_last", "dilation_rate": [1, 1], "activation": "linear", "use_bias": false, "kernel_initializer": {"class_name": "VarianceScaling", "config": {"scale": 1.0, "mode": "fan_avg", "distribution": "uniform", "seed": null}}, "bias_initializer": {"class_name": "Zeros", "config": {}}, "kernel_regularizer": null, "bias_regularizer": null, "activity_regularizer": null, "kernel_constraint": null, "bias_constraint": null}, "inbound_nodes": [[["activation_46", 0, 0, {}]]]}, {"name": "batch_normalization_42", "class_name": "BatchNormalization", "config": {"name": "batch_normalization_42", "trainable": false, "axis": 3, "momentum": 0.99, "epsilon": 0.001, "center": true, "scale": false, "beta_initializer": {"class_name": "Zeros", "config": {}}, "gamma_initializer": {"class_name": "Ones", "config": {}}, "moving_mean_initializer": {"class_name": "Zeros", "config": {}}, "moving_variance_initializer": {"class_name": "Ones", "config": {}}, "beta_regularizer": null, "gamma_regularizer": null, "beta_constraint": null, "gamma_constraint": null}, "inbound_nodes": [[["conv2d_42", 0, 0, {}]]]}, {"name": "batch_normalization_47", "class_name": "BatchNormalization", "config": {"name": "batch_normalization_47", "trainable": false, "axis": 3, "momentum": 0.99, "epsilon": 0.001, "center": true, "scale": false, "beta_initializer": {"class_name": "Zeros", "config": {}}, "gamma_initializer": {"class_name": "Ones", "config": {}}, "moving_mean_initializer": {"class_name": "Zeros", "config": {}}, "moving_variance_initializer": {"class_name": "Ones", "config": {}}, "beta_regularizer": null, "gamma_regularizer": null, "beta_constraint": null, "gamma_constraint": null}, "inbound_nodes": [[["conv2d_47", 0, 0, {}]]]}, {"name": "activation_42", "class_name": "Activation", "config": {"name": "activation_42", "trainable": false, "activation": "relu"}, "inbound_nodes": [[["batch_normalization_42", 0, 0, {}]]]}, {"name": "activation_47", "class_name": "Activation", "config": {"name": "activation_47", "trainable": false, "activation": "relu"}, "inbound_nodes": [[["batch_normalization_47", 0, 0, {}]]]}, {"name": "conv2d_43", "class_name": "Conv2D", "config": {"name": "conv2d_43", "trainable": false, "filters": 160, "kernel_size": [1, 7], "strides": [1, 1], "padding": "same", "data_format": "channels_last", "dilation_rate": [1, 1], "activation": "linear", "use_bias": false, "kernel_initializer": {"class_name": "VarianceScaling", "config": {"scale": 1.0, "mode": "fan_avg", "distribution": "uniform", "seed": null}}, "bias_initializer": {"class_name": "Zeros", "config": {}}, "kernel_regularizer": null, "bias_regularizer": null, "activity_regularizer": null, "kernel_constraint": null, "bias_constraint": null}, "inbound_nodes": [[["activation_42", 0, 0, {}]]]}, {"name": "conv2d_48", "class_name": "Conv2D", "config": {"name": "conv2d_48", "trainable": false, "filters": 160, "kernel_size": [7, 1], "strides": [1, 1], "padding": "same", "data_format": "channels_last", "dilation_rate": [1, 1], "activation": "linear", "use_bias": false, "kernel_initializer": {"class_name": "VarianceScaling", "config": {"scale": 1.0, "mode": "fan_avg", "distribution": "uniform", "seed": null}}, "bias_initializer": {"class_name": "Zeros", "config": {}}, "kernel_regularizer": null, "bias_regularizer": null, "activity_regularizer": null, "kernel_constraint": null, "bias_constraint": null}, "inbound_nodes": [[["activation_47", 0, 0, {}]]]}, {"name": "batch_normalization_43", "class_name": "BatchNormalization", "config": {"name": "batch_normalization_43", "trainable": false, "axis": 3, "momentum": 0.99, "epsilon": 0.001, "center": true, "scale": false, "beta_initializer": {"class_name": "Zeros", "config": {}}, "gamma_initializer": {"class_name": "Ones", "config": {}}, "moving_mean_initializer": {"class_name": "Zeros", "config": {}}, "moving_variance_initializer": {"class_name": "Ones", "config": {}}, "beta_regularizer": null, "gamma_regularizer": null, "beta_constraint": null, "gamma_constraint": null}, "inbound_nodes": [[["conv2d_43", 0, 0, {}]]]}, {"name": "batch_normalization_48", "class_name": "BatchNormalization", "config": {"name": "batch_normalization_48", "trainable": false, "axis": 3, "momentum": 0.99, "epsilon": 0.001, "center": true, "scale": false, "beta_initializer": {"class_name": "Zeros", "config": {}}, "gamma_initializer": {"class_name": "Ones", "config": {}}, "moving_mean_initializer": {"class_name": "Zeros", "config": {}}, "moving_variance_initializer": {"class_name": "Ones", "config": {}}, "beta_regularizer": null, "gamma_regularizer": null, "beta_constraint": null, "gamma_constraint": null}, "inbound_nodes": [[["conv2d_48", 0, 0, {}]]]}, {"name": "activation_43", "class_name": "Activation", "config": {"name": "activation_43", "trainable": false, "activation": "relu"}, "inbound_nodes": [[["batch_normalization_43", 0, 0, {}]]]}, {"name": "activation_48", "class_name": "Activation", "config": {"name": "activation_48", "trainable": false, "activation": "relu"}, "inbound_nodes": [[["batch_normalization_48", 0, 0, {}]]]}, {"name": "average_pooling2d_5", "class_name": "AveragePooling2D", "config": {"name": "average_pooling2d_5", "trainable": false, "pool_size": [3, 3], "padding": "same", "strides": [1, 1], "data_format": "channels_last"}, "inbound_nodes": [[["mixed4", 0, 0, {}]]]}, {"name": "conv2d_41", "class_name": "Conv2D", "config": {"name": "conv2d_41", "trainable": false, "filters": 192, "kernel_size": [1, 1], "strides": [1, 1], "padding": "same", "data_format": "channels_last", "dilation_rate": [1, 1], "activation": "linear", "use_bias": false, "kernel_initializer": {"class_name": "VarianceScaling", "config": {"scale": 1.0, "mode": "fan_avg", "distribution": "uniform", "seed": null}}, "bias_initializer": {"class_name": "Zeros", "config": {}}, "kernel_regularizer": null, "bias_regularizer": null, "activity_regularizer": null, "kernel_constraint": null, "bias_constraint": null}, "inbound_nodes": [[["mixed4", 0, 0, {}]]]}, {"name": "conv2d_44", "class_name": "Conv2D", "config": {"name": "conv2d_44", "trainable": false, "filters": 192, "kernel_size": [7, 1], "strides": [1, 1], "padding": "same", "data_format": "channels_last", "dilation_rate": [1, 1], "activation": "linear", "use_bias": false, "kernel_initializer": {"class_name": "VarianceScaling", "config": {"scale": 1.0, "mode": "fan_avg", "distribution": "uniform", "seed": null}}, "bias_initializer": {"class_name": "Zeros", "config": {}}, "kernel_regularizer": null, "bias_regularizer": null, "activity_regularizer": null, "kernel_constraint": null, "bias_constraint": null}, "inbound_nodes": [[["activation_43", 0, 0, {}]]]}, {"name": "conv2d_49", "class_name": "Conv2D", "config": {"name": "conv2d_49", "trainable": false, "filters": 192, "kernel_size": [1, 7], "strides": [1, 1], "padding": "same", "data_format": "channels_last", "dilation_rate": [1, 1], "activation": "linear", "use_bias": false, "kernel_initializer": {"class_name": "VarianceScaling", "config": {"scale": 1.0, "mode": "fan_avg", "distribution": "uniform", "seed": null}}, "bias_initializer": {"class_name": "Zeros", "config": {}}, "kernel_regularizer": null, "bias_regularizer": null, "activity_regularizer": null, "kernel_constraint": null, "bias_constraint": null}, "inbound_nodes": [[["activation_48", 0, 0, {}]]]}, {"name": "conv2d_50", "class_name": "Conv2D", "config": {"name": "conv2d_50", "trainable": false, "filters": 192, "kernel_size": [1, 1], "strides": [1, 1], "padding": "same", "data_format": "channels_last", "dilation_rate": [1, 1], "activation": "linear", "use_bias": false, "kernel_initializer": {"class_name": "VarianceScaling", "config": {"scale": 1.0, "mode": "fan_avg", "distribution": "uniform", "seed": null}}, "bias_initializer": {"class_name": "Zeros", "config": {}}, "kernel_regularizer": null, "bias_regularizer": null, "activity_regularizer": null, "kernel_constraint": null, "bias_constraint": null}, "inbound_nodes": [[["average_pooling2d_5", 0, 0, {}]]]}, {"name": "batch_normalization_41", "class_name": "BatchNormalization", "config": {"name": "batch_normalization_41", "trainable": false, "axis": 3, "momentum": 0.99, "epsilon": 0.001, "center": true, "scale": false, "beta_initializer": {"class_name": "Zeros", "config": {}}, "gamma_initializer": {"class_name": "Ones", "config": {}}, "moving_mean_initializer": {"class_name": "Zeros", "config": {}}, "moving_variance_initializer": {"class_name": "Ones", "config": {}}, "beta_regularizer": null, "gamma_regularizer": null, "beta_constraint": null, "gamma_constraint": null}, "inbound_nodes": [[["conv2d_41", 0, 0, {}]]]}, {"name": "batch_normalization_44", "class_name": "BatchNormalization", "config": {"name": "batch_normalization_44", "trainable": false, "axis": 3, "momentum": 0.99, "epsilon": 0.001, "center": true, "scale": false, "beta_initializer": {"class_name": "Zeros", "config": {}}, "gamma_initializer": {"class_name": "Ones", "config": {}}, "moving_mean_initializer": {"class_name": "Zeros", "config": {}}, "moving_variance_initializer": {"class_name": "Ones", "config": {}}, "beta_regularizer": null, "gamma_regularizer": null, "beta_constraint": null, "gamma_constraint": null}, "inbound_nodes": [[["conv2d_44", 0, 0, {}]]]}, {"name": "batch_normalization_49", "class_name": "BatchNormalization", "config": {"name": "batch_normalization_49", "trainable": false, "axis": 3, "momentum": 0.99, "epsilon": 0.001, "center": true, "scale": false, "beta_initializer": {"class_name": "Zeros", "config": {}}, "gamma_initializer": {"class_name": "Ones", "config": {}}, "moving_mean_initializer": {"class_name": "Zeros", "config": {}}, "moving_variance_initializer": {"class_name": "Ones", "config": {}}, "beta_regularizer": null, "gamma_regularizer": null, "beta_constraint": null, "gamma_constraint": null}, "inbound_nodes": [[["conv2d_49", 0, 0, {}]]]}, {"name": "batch_normalization_50", "class_name": "BatchNormalization", "config": {"name": "batch_normalization_50", "trainable": false, "axis": 3, "momentum": 0.99, "epsilon": 0.001, "center": true, "scale": false, "beta_initializer": {"class_name": "Zeros", "config": {}}, "gamma_initializer": {"class_name": "Ones", "config": {}}, "moving_mean_initializer": {"class_name": "Zeros", "config": {}}, "moving_variance_initializer": {"class_name": "Ones", "config": {}}, "beta_regularizer": null, "gamma_regularizer": null, "beta_constraint": null, "gamma_constraint": null}, "inbound_nodes": [[["conv2d_50", 0, 0, {}]]]}, {"name": "activation_41", "class_name": "Activation", "config": {"name": "activation_41", "trainable": false, "activation": "relu"}, "inbound_nodes": [[["batch_normalization_41", 0, 0, {}]]]}, {"name": "activation_44", "class_name": "Activation", "config": {"name": "activation_44", "trainable": false, "activation": "relu"}, "inbound_nodes": [[["batch_normalization_44", 0, 0, {}]]]}, {"name": "activation_49", "class_name": "Activation", "config": {"name": "activation_49", "trainable": false, "activation": "relu"}, "inbound_nodes": [[["batch_normalization_49", 0, 0, {}]]]}, {"name": "activation_50", "class_name": "Activation", "config": {"name": "activation_50", "trainable": false, "activation": "relu"}, "inbound_nodes": [[["batch_normalization_50", 0, 0, {}]]]}, {"name": "mixed5", "class_name": "Concatenate", "config": {"name": "mixed5", "trainable": false, "axis": 3}, "inbound_nodes": [[["activation_41", 0, 0, {}], ["activation_44", 0, 0, {}], ["activation_49", 0, 0, {}], ["activation_50", 0, 0, {}]]]}, {"name": "conv2d_55", "class_name": "Conv2D", "config": {"name": "conv2d_55", "trainable": false, "filters": 160, "kernel_size": [1, 1], "strides": [1, 1], "padding": "same", "data_format": "channels_last", "dilation_rate": [1, 1], "activation": "linear", "use_bias": false, "kernel_initializer": {"class_name": "VarianceScaling", "config": {"scale": 1.0, "mode": "fan_avg", "distribution": "uniform", "seed": null}}, "bias_initializer": {"class_name": "Zeros", "config": {}}, "kernel_regularizer": null, "bias_regularizer": null, "activity_regularizer": null, "kernel_constraint": null, "bias_constraint": null}, "inbound_nodes": [[["mixed5", 0, 0, {}]]]}, {"name": "batch_normalization_55", "class_name": "BatchNormalization", "config": {"name": "batch_normalization_55", "trainable": false, "axis": 3, "momentum": 0.99, "epsilon": 0.001, "center": true, "scale": false, "beta_initializer": {"class_name": "Zeros", "config": {}}, "gamma_initializer": {"class_name": "Ones", "config": {}}, "moving_mean_initializer": {"class_name": "Zeros", "config": {}}, "moving_variance_initializer": {"class_name": "Ones", "config": {}}, "beta_regularizer": null, "gamma_regularizer": null, "beta_constraint": null, "gamma_constraint": null}, "inbound_nodes": [[["conv2d_55", 0, 0, {}]]]}, {"name": "activation_55", "class_name": "Activation", "config": {"name": "activation_55", "trainable": false, "activation": "relu"}, "inbound_nodes": [[["batch_normalization_55", 0, 0, {}]]]}, {"name": "conv2d_56", "class_name": "Conv2D", "config": {"name": "conv2d_56", "trainable": false, "filters": 160, "kernel_size": [7, 1], "strides": [1, 1], "padding": "same", "data_format": "channels_last", "dilation_rate": [1, 1], "activation": "linear", "use_bias": false, "kernel_initializer": {"class_name": "VarianceScaling", "config": {"scale": 1.0, "mode": "fan_avg", "distribution": "uniform", "seed": null}}, "bias_initializer": {"class_name": "Zeros", "config": {}}, "kernel_regularizer": null, "bias_regularizer": null, "activity_regularizer": null, "kernel_constraint": null, "bias_constraint": null}, "inbound_nodes": [[["activation_55", 0, 0, {}]]]}, {"name": "batch_normalization_56", "class_name": "BatchNormalization", "config": {"name": "batch_normalization_56", "trainable": false, "axis": 3, "momentum": 0.99, "epsilon": 0.001, "center": true, "scale": false, "beta_initializer": {"class_name": "Zeros", "config": {}}, "gamma_initializer": {"class_name": "Ones", "config": {}}, "moving_mean_initializer": {"class_name": "Zeros", "config": {}}, "moving_variance_initializer": {"class_name": "Ones", "config": {}}, "beta_regularizer": null, "gamma_regularizer": null, "beta_constraint": null, "gamma_constraint": null}, "inbound_nodes": [[["conv2d_56", 0, 0, {}]]]}, {"name": "activation_56", "class_name": "Activation", "config": {"name": "activation_56", "trainable": false, "activation": "relu"}, "inbound_nodes": [[["batch_normalization_56", 0, 0, {}]]]}, {"name": "conv2d_52", "class_name": "Conv2D", "config": {"name": "conv2d_52", "trainable": false, "filters": 160, "kernel_size": [1, 1], "strides": [1, 1], "padding": "same", "data_format": "channels_last", "dilation_rate": [1, 1], "activation": "linear", "use_bias": false, "kernel_initializer": {"class_name": "VarianceScaling", "config": {"scale": 1.0, "mode": "fan_avg", "distribution": "uniform", "seed": null}}, "bias_initializer": {"class_name": "Zeros", "config": {}}, "kernel_regularizer": null, "bias_regularizer": null, "activity_regularizer": null, "kernel_constraint": null, "bias_constraint": null}, "inbound_nodes": [[["mixed5", 0, 0, {}]]]}, {"name": "conv2d_57", "class_name": "Conv2D", "config": {"name": "conv2d_57", "trainable": false, "filters": 160, "kernel_size": [1, 7], "strides": [1, 1], "padding": "same", "data_format": "channels_last", "dilation_rate": [1, 1], "activation": "linear", "use_bias": false, "kernel_initializer": {"class_name": "VarianceScaling", "config": {"scale": 1.0, "mode": "fan_avg", "distribution": "uniform", "seed": null}}, "bias_initializer": {"class_name": "Zeros", "config": {}}, "kernel_regularizer": null, "bias_regularizer": null, "activity_regularizer": null, "kernel_constraint": null, "bias_constraint": null}, "inbound_nodes": [[["activation_56", 0, 0, {}]]]}, {"name": "batch_normalization_52", "class_name": "BatchNormalization", "config": {"name": "batch_normalization_52", "trainable": false, "axis": 3, "momentum": 0.99, "epsilon": 0.001, "center": true, "scale": false, "beta_initializer": {"class_name": "Zeros", "config": {}}, "gamma_initializer": {"class_name": "Ones", "config": {}}, "moving_mean_initializer": {"class_name": "Zeros", "config": {}}, "moving_variance_initializer": {"class_name": "Ones", "config": {}}, "beta_regularizer": null, "gamma_regularizer": null, "beta_constraint": null, "gamma_constraint": null}, "inbound_nodes": [[["conv2d_52", 0, 0, {}]]]}, {"name": "batch_normalization_57", "class_name": "BatchNormalization", "config": {"name": "batch_normalization_57", "trainable": false, "axis": 3, "momentum": 0.99, "epsilon": 0.001, "center": true, "scale": false, "beta_initializer": {"class_name": "Zeros", "config": {}}, "gamma_initializer": {"class_name": "Ones", "config": {}}, "moving_mean_initializer": {"class_name": "Zeros", "config": {}}, "moving_variance_initializer": {"class_name": "Ones", "config": {}}, "beta_regularizer": null, "gamma_regularizer": null, "beta_constraint": null, "gamma_constraint": null}, "inbound_nodes": [[["conv2d_57", 0, 0, {}]]]}, {"name": "activation_52", "class_name": "Activation", "config": {"name": "activation_52", "trainable": false, "activation": "relu"}, "inbound_nodes": [[["batch_normalization_52", 0, 0, {}]]]}, {"name": "activation_57", "class_name": "Activation", "config": {"name": "activation_57", "trainable": false, "activation": "relu"}, "inbound_nodes": [[["batch_normalization_57", 0, 0, {}]]]}, {"name": "conv2d_53", "class_name": "Conv2D", "config": {"name": "conv2d_53", "trainable": false, "filters": 160, "kernel_size": [1, 7], "strides": [1, 1], "padding": "same", "data_format": "channels_last", "dilation_rate": [1, 1], "activation": "linear", "use_bias": false, "kernel_initializer": {"class_name": "VarianceScaling", "config": {"scale": 1.0, "mode": "fan_avg", "distribution": "uniform", "seed": null}}, "bias_initializer": {"class_name": "Zeros", "config": {}}, "kernel_regularizer": null, "bias_regularizer": null, "activity_regularizer": null, "kernel_constraint": null, "bias_constraint": null}, "inbound_nodes": [[["activation_52", 0, 0, {}]]]}, {"name": "conv2d_58", "class_name": "Conv2D", "config": {"name": "conv2d_58", "trainable": false, "filters": 160, "kernel_size": [7, 1], "strides": [1, 1], "padding": "same", "data_format": "channels_last", "dilation_rate": [1, 1], "activation": "linear", "use_bias": false, "kernel_initializer": {"class_name": "VarianceScaling", "config": {"scale": 1.0, "mode": "fan_avg", "distribution": "uniform", "seed": null}}, "bias_initializer": {"class_name": "Zeros", "config": {}}, "kernel_regularizer": null, "bias_regularizer": null, "activity_regularizer": null, "kernel_constraint": null, "bias_constraint": null}, "inbound_nodes": [[["activation_57", 0, 0, {}]]]}, {"name": "batch_normalization_53", "class_name": "BatchNormalization", "config": {"name": "batch_normalization_53", "trainable": false, "axis": 3, "momentum": 0.99, "epsilon": 0.001, "center": true, "scale": false, "beta_initializer": {"class_name": "Zeros", "config": {}}, "gamma_initializer": {"class_name": "Ones", "config": {}}, "moving_mean_initializer": {"class_name": "Zeros", "config": {}}, "moving_variance_initializer": {"class_name": "Ones", "config": {}}, "beta_regularizer": null, "gamma_regularizer": null, "beta_constraint": null, "gamma_constraint": null}, "inbound_nodes": [[["conv2d_53", 0, 0, {}]]]}, {"name": "batch_normalization_58", "class_name": "BatchNormalization", "config": {"name": "batch_normalization_58", "trainable": false, "axis": 3, "momentum": 0.99, "epsilon": 0.001, "center": true, "scale": false, "beta_initializer": {"class_name": "Zeros", "config": {}}, "gamma_initializer": {"class_name": "Ones", "config": {}}, "moving_mean_initializer": {"class_name": "Zeros", "config": {}}, "moving_variance_initializer": {"class_name": "Ones", "config": {}}, "beta_regularizer": null, "gamma_regularizer": null, "beta_constraint": null, "gamma_constraint": null}, "inbound_nodes": [[["conv2d_58", 0, 0, {}]]]}, {"name": "activation_53", "class_name": "Activation", "config": {"name": "activation_53", "trainable": false, "activation": "relu"}, "inbound_nodes": [[["batch_normalization_53", 0, 0, {}]]]}, {"name": "activation_58", "class_name": "Activation", "config": {"name": "activation_58", "trainable": false, "activation": "relu"}, "inbound_nodes": [[["batch_normalization_58", 0, 0, {}]]]}, {"name": "average_pooling2d_6", "class_name": "AveragePooling2D", "config": {"name": "average_pooling2d_6", "trainable": false, "pool_size": [3, 3], "padding": "same", "strides": [1, 1], "data_format": "channels_last"}, "inbound_nodes": [[["mixed5", 0, 0, {}]]]}, {"name": "conv2d_51", "class_name": "Conv2D", "config": {"name": "conv2d_51", "trainable": false, "filters": 192, "kernel_size": [1, 1], "strides": [1, 1], "padding": "same", "data_format": "channels_last", "dilation_rate": [1, 1], "activation": "linear", "use_bias": false, "kernel_initializer": {"class_name": "VarianceScaling", "config": {"scale": 1.0, "mode": "fan_avg", "distribution": "uniform", "seed": null}}, "bias_initializer": {"class_name": "Zeros", "config": {}}, "kernel_regularizer": null, "bias_regularizer": null, "activity_regularizer": null, "kernel_constraint": null, "bias_constraint": null}, "inbound_nodes": [[["mixed5", 0, 0, {}]]]}, {"name": "conv2d_54", "class_name": "Conv2D", "config": {"name": "conv2d_54", "trainable": false, "filters": 192, "kernel_size": [7, 1], "strides": [1, 1], "padding": "same", "data_format": "channels_last", "dilation_rate": [1, 1], "activation": "linear", "use_bias": false, "kernel_initializer": {"class_name": "VarianceScaling", "config": {"scale": 1.0, "mode": "fan_avg", "distribution": "uniform", "seed": null}}, "bias_initializer": {"class_name": "Zeros", "config": {}}, "kernel_regularizer": null, "bias_regularizer": null, "activity_regularizer": null, "kernel_constraint": null, "bias_constraint": null}, "inbound_nodes": [[["activation_53", 0, 0, {}]]]}, {"name": "conv2d_59", "class_name": "Conv2D", "config": {"name": "conv2d_59", "trainable": false, "filters": 192, "kernel_size": [1, 7], "strides": [1, 1], "padding": "same", "data_format": "channels_last", "dilation_rate": [1, 1], "activation": "linear", "use_bias": false, "kernel_initializer": {"class_name": "VarianceScaling", "config": {"scale": 1.0, "mode": "fan_avg", "distribution": "uniform", "seed": null}}, "bias_initializer": {"class_name": "Zeros", "config": {}}, "kernel_regularizer": null, "bias_regularizer": null, "activity_regularizer": null, "kernel_constraint": null, "bias_constraint": null}, "inbound_nodes": [[["activation_58", 0, 0, {}]]]}, {"name": "conv2d_60", "class_name": "Conv2D", "config": {"name": "conv2d_60", "trainable": false, "filters": 192, "kernel_size": [1, 1], "strides": [1, 1], "padding": "same", "data_format": "channels_last", "dilation_rate": [1, 1], "activation": "linear", "use_bias": false, "kernel_initializer": {"class_name": "VarianceScaling", "config": {"scale": 1.0, "mode": "fan_avg", "distribution": "uniform", "seed": null}}, "bias_initializer": {"class_name": "Zeros", "config": {}}, "kernel_regularizer": null, "bias_regularizer": null, "activity_regularizer": null, "kernel_constraint": null, "bias_constraint": null}, "inbound_nodes": [[["average_pooling2d_6", 0, 0, {}]]]}, {"name": "batch_normalization_51", "class_name": "BatchNormalization", "config": {"name": "batch_normalization_51", "trainable": false, "axis": 3, "momentum": 0.99, "epsilon": 0.001, "center": true, "scale": false, "beta_initializer": {"class_name": "Zeros", "config": {}}, "gamma_initializer": {"class_name": "Ones", "config": {}}, "moving_mean_initializer": {"class_name": "Zeros", "config": {}}, "moving_variance_initializer": {"class_name": "Ones", "config": {}}, "beta_regularizer": null, "gamma_regularizer": null, "beta_constraint": null, "gamma_constraint": null}, "inbound_nodes": [[["conv2d_51", 0, 0, {}]]]}, {"name": "batch_normalization_54", "class_name": "BatchNormalization", "config": {"name": "batch_normalization_54", "trainable": false, "axis": 3, "momentum": 0.99, "epsilon": 0.001, "center": true, "scale": false, "beta_initializer": {"class_name": "Zeros", "config": {}}, "gamma_initializer": {"class_name": "Ones", "config": {}}, "moving_mean_initializer": {"class_name": "Zeros", "config": {}}, "moving_variance_initializer": {"class_name": "Ones", "config": {}}, "beta_regularizer": null, "gamma_regularizer": null, "beta_constraint": null, "gamma_constraint": null}, "inbound_nodes": [[["conv2d_54", 0, 0, {}]]]}, {"name": "batch_normalization_59", "class_name": "BatchNormalization", "config": {"name": "batch_normalization_59", "trainable": false, "axis": 3, "momentum": 0.99, "epsilon": 0.001, "center": true, "scale": false, "beta_initializer": {"class_name": "Zeros", "config": {}}, "gamma_initializer": {"class_name": "Ones", "config": {}}, "moving_mean_initializer": {"class_name": "Zeros", "config": {}}, "moving_variance_initializer": {"class_name": "Ones", "config": {}}, "beta_regularizer": null, "gamma_regularizer": null, "beta_constraint": null, "gamma_constraint": null}, "inbound_nodes": [[["conv2d_59", 0, 0, {}]]]}, {"name": "batch_normalization_60", "class_name": "BatchNormalization", "config": {"name": "batch_normalization_60", "trainable": false, "axis": 3, "momentum": 0.99, "epsilon": 0.001, "center": true, "scale": false, "beta_initializer": {"class_name": "Zeros", "config": {}}, "gamma_initializer": {"class_name": "Ones", "config": {}}, "moving_mean_initializer": {"class_name": "Zeros", "config": {}}, "moving_variance_initializer": {"class_name": "Ones", "config": {}}, "beta_regularizer": null, "gamma_regularizer": null, "beta_constraint": null, "gamma_constraint": null}, "inbound_nodes": [[["conv2d_60", 0, 0, {}]]]}, {"name": "activation_51", "class_name": "Activation", "config": {"name": "activation_51", "trainable": false, "activation": "relu"}, "inbound_nodes": [[["batch_normalization_51", 0, 0, {}]]]}, {"name": "activation_54", "class_name": "Activation", "config": {"name": "activation_54", "trainable": false, "activation": "relu"}, "inbound_nodes": [[["batch_normalization_54", 0, 0, {}]]]}, {"name": "activation_59", "class_name": "Activation", "config": {"name": "activation_59", "trainable": false, "activation": "relu"}, "inbound_nodes": [[["batch_normalization_59", 0, 0, {}]]]}, {"name": "activation_60", "class_name": "Activation", "config": {"name": "activation_60", "trainable": false, "activation": "relu"}, "inbound_nodes": [[["batch_normalization_60", 0, 0, {}]]]}, {"name": "mixed6", "class_name": "Concatenate", "config": {"name": "mixed6", "trainable": false, "axis": 3}, "inbound_nodes": [[["activation_51", 0, 0, {}], ["activation_54", 0, 0, {}], ["activation_59", 0, 0, {}], ["activation_60", 0, 0, {}]]]}, {"name": "conv2d_65", "class_name": "Conv2D", "config": {"name": "conv2d_65", "trainable": false, "filters": 192, "kernel_size": [1, 1], "strides": [1, 1], "padding": "same", "data_format": "channels_last", "dilation_rate": [1, 1], "activation": "linear", "use_bias": false, "kernel_initializer": {"class_name": "VarianceScaling", "config": {"scale": 1.0, "mode": "fan_avg", "distribution": "uniform", "seed": null}}, "bias_initializer": {"class_name": "Zeros", "config": {}}, "kernel_regularizer": null, "bias_regularizer": null, "activity_regularizer": null, "kernel_constraint": null, "bias_constraint": null}, "inbound_nodes": [[["mixed6", 0, 0, {}]]]}, {"name": "batch_normalization_65", "class_name": "BatchNormalization", "config": {"name": "batch_normalization_65", "trainable": false, "axis": 3, "momentum": 0.99, "epsilon": 0.001, "center": true, "scale": false, "beta_initializer": {"class_name": "Zeros", "config": {}}, "gamma_initializer": {"class_name": "Ones", "config": {}}, "moving_mean_initializer": {"class_name": "Zeros", "config": {}}, "moving_variance_initializer": {"class_name": "Ones", "config": {}}, "beta_regularizer": null, "gamma_regularizer": null, "beta_constraint": null, "gamma_constraint": null}, "inbound_nodes": [[["conv2d_65", 0, 0, {}]]]}, {"name": "activation_65", "class_name": "Activation", "config": {"name": "activation_65", "trainable": false, "activation": "relu"}, "inbound_nodes": [[["batch_normalization_65", 0, 0, {}]]]}, {"name": "conv2d_66", "class_name": "Conv2D", "config": {"name": "conv2d_66", "trainable": false, "filters": 192, "kernel_size": [7, 1], "strides": [1, 1], "padding": "same", "data_format": "channels_last", "dilation_rate": [1, 1], "activation": "linear", "use_bias": false, "kernel_initializer": {"class_name": "VarianceScaling", "config": {"scale": 1.0, "mode": "fan_avg", "distribution": "uniform", "seed": null}}, "bias_initializer": {"class_name": "Zeros", "config": {}}, "kernel_regularizer": null, "bias_regularizer": null, "activity_regularizer": null, "kernel_constraint": null, "bias_constraint": null}, "inbound_nodes": [[["activation_65", 0, 0, {}]]]}, {"name": "batch_normalization_66", "class_name": "BatchNormalization", "config": {"name": "batch_normalization_66", "trainable": false, "axis": 3, "momentum": 0.99, "epsilon": 0.001, "center": true, "scale": false, "beta_initializer": {"class_name": "Zeros", "config": {}}, "gamma_initializer": {"class_name": "Ones", "config": {}}, "moving_mean_initializer": {"class_name": "Zeros", "config": {}}, "moving_variance_initializer": {"class_name": "Ones", "config": {}}, "beta_regularizer": null, "gamma_regularizer": null, "beta_constraint": null, "gamma_constraint": null}, "inbound_nodes": [[["conv2d_66", 0, 0, {}]]]}, {"name": "activation_66", "class_name": "Activation", "config": {"name": "activation_66", "trainable": false, "activation": "relu"}, "inbound_nodes": [[["batch_normalization_66", 0, 0, {}]]]}, {"name": "conv2d_62", "class_name": "Conv2D", "config": {"name": "conv2d_62", "trainable": false, "filters": 192, "kernel_size": [1, 1], "strides": [1, 1], "padding": "same", "data_format": "channels_last", "dilation_rate": [1, 1], "activation": "linear", "use_bias": false, "kernel_initializer": {"class_name": "VarianceScaling", "config": {"scale": 1.0, "mode": "fan_avg", "distribution": "uniform", "seed": null}}, "bias_initializer": {"class_name": "Zeros", "config": {}}, "kernel_regularizer": null, "bias_regularizer": null, "activity_regularizer": null, "kernel_constraint": null, "bias_constraint": null}, "inbound_nodes": [[["mixed6", 0, 0, {}]]]}, {"name": "conv2d_67", "class_name": "Conv2D", "config": {"name": "conv2d_67", "trainable": false, "filters": 192, "kernel_size": [1, 7], "strides": [1, 1], "padding": "same", "data_format": "channels_last", "dilation_rate": [1, 1], "activation": "linear", "use_bias": false, "kernel_initializer": {"class_name": "VarianceScaling", "config": {"scale": 1.0, "mode": "fan_avg", "distribution": "uniform", "seed": null}}, "bias_initializer": {"class_name": "Zeros", "config": {}}, "kernel_regularizer": null, "bias_regularizer": null, "activity_regularizer": null, "kernel_constraint": null, "bias_constraint": null}, "inbound_nodes": [[["activation_66", 0, 0, {}]]]}, {"name": "batch_normalization_62", "class_name": "BatchNormalization", "config": {"name": "batch_normalization_62", "trainable": false, "axis": 3, "momentum": 0.99, "epsilon": 0.001, "center": true, "scale": false, "beta_initializer": {"class_name": "Zeros", "config": {}}, "gamma_initializer": {"class_name": "Ones", "config": {}}, "moving_mean_initializer": {"class_name": "Zeros", "config": {}}, "moving_variance_initializer": {"class_name": "Ones", "config": {}}, "beta_regularizer": null, "gamma_regularizer": null, "beta_constraint": null, "gamma_constraint": null}, "inbound_nodes": [[["conv2d_62", 0, 0, {}]]]}, {"name": "batch_normalization_67", "class_name": "BatchNormalization", "config": {"name": "batch_normalization_67", "trainable": false, "axis": 3, "momentum": 0.99, "epsilon": 0.001, "center": true, "scale": false, "beta_initializer": {"class_name": "Zeros", "config": {}}, "gamma_initializer": {"class_name": "Ones", "config": {}}, "moving_mean_initializer": {"class_name": "Zeros", "config": {}}, "moving_variance_initializer": {"class_name": "Ones", "config": {}}, "beta_regularizer": null, "gamma_regularizer": null, "beta_constraint": null, "gamma_constraint": null}, "inbound_nodes": [[["conv2d_67", 0, 0, {}]]]}, {"name": "activation_62", "class_name": "Activation", "config": {"name": "activation_62", "trainable": false, "activation": "relu"}, "inbound_nodes": [[["batch_normalization_62", 0, 0, {}]]]}, {"name": "activation_67", "class_name": "Activation", "config": {"name": "activation_67", "trainable": false, "activation": "relu"}, "inbound_nodes": [[["batch_normalization_67", 0, 0, {}]]]}, {"name": "conv2d_63", "class_name": "Conv2D", "config": {"name": "conv2d_63", "trainable": false, "filters": 192, "kernel_size": [1, 7], "strides": [1, 1], "padding": "same", "data_format": "channels_last", "dilation_rate": [1, 1], "activation": "linear", "use_bias": false, "kernel_initializer": {"class_name": "VarianceScaling", "config": {"scale": 1.0, "mode": "fan_avg", "distribution": "uniform", "seed": null}}, "bias_initializer": {"class_name": "Zeros", "config": {}}, "kernel_regularizer": null, "bias_regularizer": null, "activity_regularizer": null, "kernel_constraint": null, "bias_constraint": null}, "inbound_nodes": [[["activation_62", 0, 0, {}]]]}, {"name": "conv2d_68", "class_name": "Conv2D", "config": {"name": "conv2d_68", "trainable": false, "filters": 192, "kernel_size": [7, 1], "strides": [1, 1], "padding": "same", "data_format": "channels_last", "dilation_rate": [1, 1], "activation": "linear", "use_bias": false, "kernel_initializer": {"class_name": "VarianceScaling", "config": {"scale": 1.0, "mode": "fan_avg", "distribution": "uniform", "seed": null}}, "bias_initializer": {"class_name": "Zeros", "config": {}}, "kernel_regularizer": null, "bias_regularizer": null, "activity_regularizer": null, "kernel_constraint": null, "bias_constraint": null}, "inbound_nodes": [[["activation_67", 0, 0, {}]]]}, {"name": "batch_normalization_63", "class_name": "BatchNormalization", "config": {"name": "batch_normalization_63", "trainable": false, "axis": 3, "momentum": 0.99, "epsilon": 0.001, "center": true, "scale": false, "beta_initializer": {"class_name": "Zeros", "config": {}}, "gamma_initializer": {"class_name": "Ones", "config": {}}, "moving_mean_initializer": {"class_name": "Zeros", "config": {}}, "moving_variance_initializer": {"class_name": "Ones", "config": {}}, "beta_regularizer": null, "gamma_regularizer": null, "beta_constraint": null, "gamma_constraint": null}, "inbound_nodes": [[["conv2d_63", 0, 0, {}]]]}, {"name": "batch_normalization_68", "class_name": "BatchNormalization", "config": {"name": "batch_normalization_68", "trainable": false, "axis": 3, "momentum": 0.99, "epsilon": 0.001, "center": true, "scale": false, "beta_initializer": {"class_name": "Zeros", "config": {}}, "gamma_initializer": {"class_name": "Ones", "config": {}}, "moving_mean_initializer": {"class_name": "Zeros", "config": {}}, "moving_variance_initializer": {"class_name": "Ones", "config": {}}, "beta_regularizer": null, "gamma_regularizer": null, "beta_constraint": null, "gamma_constraint": null}, "inbound_nodes": [[["conv2d_68", 0, 0, {}]]]}, {"name": "activation_63", "class_name": "Activation", "config": {"name": "activation_63", "trainable": false, "activation": "relu"}, "inbound_nodes": [[["batch_normalization_63", 0, 0, {}]]]}, {"name": "activation_68", "class_name": "Activation", "config": {"name": "activation_68", "trainable": false, "activation": "relu"}, "inbound_nodes": [[["batch_normalization_68", 0, 0, {}]]]}, {"name": "average_pooling2d_7", "class_name": "AveragePooling2D", "config": {"name": "average_pooling2d_7", "trainable": false, "pool_size": [3, 3], "padding": "same", "strides": [1, 1], "data_format": "channels_last"}, "inbound_nodes": [[["mixed6", 0, 0, {}]]]}, {"name": "conv2d_61", "class_name": "Conv2D", "config": {"name": "conv2d_61", "trainable": false, "filters": 192, "kernel_size": [1, 1], "strides": [1, 1], "padding": "same", "data_format": "channels_last", "dilation_rate": [1, 1], "activation": "linear", "use_bias": false, "kernel_initializer": {"class_name": "VarianceScaling", "config": {"scale": 1.0, "mode": "fan_avg", "distribution": "uniform", "seed": null}}, "bias_initializer": {"class_name": "Zeros", "config": {}}, "kernel_regularizer": null, "bias_regularizer": null, "activity_regularizer": null, "kernel_constraint": null, "bias_constraint": null}, "inbound_nodes": [[["mixed6", 0, 0, {}]]]}, {"name": "conv2d_64", "class_name": "Conv2D", "config": {"name": "conv2d_64", "trainable": false, "filters": 192, "kernel_size": [7, 1], "strides": [1, 1], "padding": "same", "data_format": "channels_last", "dilation_rate": [1, 1], "activation": "linear", "use_bias": false, "kernel_initializer": {"class_name": "VarianceScaling", "config": {"scale": 1.0, "mode": "fan_avg", "distribution": "uniform", "seed": null}}, "bias_initializer": {"class_name": "Zeros", "config": {}}, "kernel_regularizer": null, "bias_regularizer": null, "activity_regularizer": null, "kernel_constraint": null, "bias_constraint": null}, "inbound_nodes": [[["activation_63", 0, 0, {}]]]}, {"name": "conv2d_69", "class_name": "Conv2D", "config": {"name": "conv2d_69", "trainable": false, "filters": 192, "kernel_size": [1, 7], "strides": [1, 1], "padding": "same", "data_format": "channels_last", "dilation_rate": [1, 1], "activation": "linear", "use_bias": false, "kernel_initializer": {"class_name": "VarianceScaling", "config": {"scale": 1.0, "mode": "fan_avg", "distribution": "uniform", "seed": null}}, "bias_initializer": {"class_name": "Zeros", "config": {}}, "kernel_regularizer": null, "bias_regularizer": null, "activity_regularizer": null, "kernel_constraint": null, "bias_constraint": null}, "inbound_nodes": [[["activation_68", 0, 0, {}]]]}, {"name": "conv2d_70", "class_name": "Conv2D", "config": {"name": "conv2d_70", "trainable": false, "filters": 192, "kernel_size": [1, 1], "strides": [1, 1], "padding": "same", "data_format": "channels_last", "dilation_rate": [1, 1], "activation": "linear", "use_bias": false, "kernel_initializer": {"class_name": "VarianceScaling", "config": {"scale": 1.0, "mode": "fan_avg", "distribution": "uniform", "seed": null}}, "bias_initializer": {"class_name": "Zeros", "config": {}}, "kernel_regularizer": null, "bias_regularizer": null, "activity_regularizer": null, "kernel_constraint": null, "bias_constraint": null}, "inbound_nodes": [[["average_pooling2d_7", 0, 0, {}]]]}, {"name": "batch_normalization_61", "class_name": "BatchNormalization", "config": {"name": "batch_normalization_61", "trainable": false, "axis": 3, "momentum": 0.99, "epsilon": 0.001, "center": true, "scale": false, "beta_initializer": {"class_name": "Zeros", "config": {}}, "gamma_initializer": {"class_name": "Ones", "config": {}}, "moving_mean_initializer": {"class_name": "Zeros", "config": {}}, "moving_variance_initializer": {"class_name": "Ones", "config": {}}, "beta_regularizer": null, "gamma_regularizer": null, "beta_constraint": null, "gamma_constraint": null}, "inbound_nodes": [[["conv2d_61", 0, 0, {}]]]}, {"name": "batch_normalization_64", "class_name": "BatchNormalization", "config": {"name": "batch_normalization_64", "trainable": false, "axis": 3, "momentum": 0.99, "epsilon": 0.001, "center": true, "scale": false, "beta_initializer": {"class_name": "Zeros", "config": {}}, "gamma_initializer": {"class_name": "Ones", "config": {}}, "moving_mean_initializer": {"class_name": "Zeros", "config": {}}, "moving_variance_initializer": {"class_name": "Ones", "config": {}}, "beta_regularizer": null, "gamma_regularizer": null, "beta_constraint": null, "gamma_constraint": null}, "inbound_nodes": [[["conv2d_64", 0, 0, {}]]]}, {"name": "batch_normalization_69", "class_name": "BatchNormalization", "config": {"name": "batch_normalization_69", "trainable": false, "axis": 3, "momentum": 0.99, "epsilon": 0.001, "center": true, "scale": false, "beta_initializer": {"class_name": "Zeros", "config": {}}, "gamma_initializer": {"class_name": "Ones", "config": {}}, "moving_mean_initializer": {"class_name": "Zeros", "config": {}}, "moving_variance_initializer": {"class_name": "Ones", "config": {}}, "beta_regularizer": null, "gamma_regularizer": null, "beta_constraint": null, "gamma_constraint": null}, "inbound_nodes": [[["conv2d_69", 0, 0, {}]]]}, {"name": "batch_normalization_70", "class_name": "BatchNormalization", "config": {"name": "batch_normalization_70", "trainable": false, "axis": 3, "momentum": 0.99, "epsilon": 0.001, "center": true, "scale": false, "beta_initializer": {"class_name": "Zeros", "config": {}}, "gamma_initializer": {"class_name": "Ones", "config": {}}, "moving_mean_initializer": {"class_name": "Zeros", "config": {}}, "moving_variance_initializer": {"class_name": "Ones", "config": {}}, "beta_regularizer": null, "gamma_regularizer": null, "beta_constraint": null, "gamma_constraint": null}, "inbound_nodes": [[["conv2d_70", 0, 0, {}]]]}, {"name": "activation_61", "class_name": "Activation", "config": {"name": "activation_61", "trainable": false, "activation": "relu"}, "inbound_nodes": [[["batch_normalization_61", 0, 0, {}]]]}, {"name": "activation_64", "class_name": "Activation", "config": {"name": "activation_64", "trainable": false, "activation": "relu"}, "inbound_nodes": [[["batch_normalization_64", 0, 0, {}]]]}, {"name": "activation_69", "class_name": "Activation", "config": {"name": "activation_69", "trainable": false, "activation": "relu"}, "inbound_nodes": [[["batch_normalization_69", 0, 0, {}]]]}, {"name": "activation_70", "class_name": "Activation", "config": {"name": "activation_70", "trainable": false, "activation": "relu"}, "inbound_nodes": [[["batch_normalization_70", 0, 0, {}]]]}, {"name": "mixed7", "class_name": "Concatenate", "config": {"name": "mixed7", "trainable": false, "axis": 3}, "inbound_nodes": [[["activation_61", 0, 0, {}], ["activation_64", 0, 0, {}], ["activation_69", 0, 0, {}], ["activation_70", 0, 0, {}]]]}, {"name": "conv2d_73", "class_name": "Conv2D", "config": {"name": "conv2d_73", "trainable": false, "filters": 192, "kernel_size": [1, 1], "strides": [1, 1], "padding": "same", "data_format": "channels_last", "dilation_rate": [1, 1], "activation": "linear", "use_bias": false, "kernel_initializer": {"class_name": "VarianceScaling", "config": {"scale": 1.0, "mode": "fan_avg", "distribution": "uniform", "seed": null}}, "bias_initializer": {"class_name": "Zeros", "config": {}}, "kernel_regularizer": null, "bias_regularizer": null, "activity_regularizer": null, "kernel_constraint": null, "bias_constraint": null}, "inbound_nodes": [[["mixed7", 0, 0, {}]]]}, {"name": "batch_normalization_73", "class_name": "BatchNormalization", "config": {"name": "batch_normalization_73", "trainable": false, "axis": 3, "momentum": 0.99, "epsilon": 0.001, "center": true, "scale": false, "beta_initializer": {"class_name": "Zeros", "config": {}}, "gamma_initializer": {"class_name": "Ones", "config": {}}, "moving_mean_initializer": {"class_name": "Zeros", "config": {}}, "moving_variance_initializer": {"class_name": "Ones", "config": {}}, "beta_regularizer": null, "gamma_regularizer": null, "beta_constraint": null, "gamma_constraint": null}, "inbound_nodes": [[["conv2d_73", 0, 0, {}]]]}, {"name": "activation_73", "class_name": "Activation", "config": {"name": "activation_73", "trainable": false, "activation": "relu"}, "inbound_nodes": [[["batch_normalization_73", 0, 0, {}]]]}, {"name": "conv2d_74", "class_name": "Conv2D", "config": {"name": "conv2d_74", "trainable": false, "filters": 192, "kernel_size": [1, 7], "strides": [1, 1], "padding": "same", "data_format": "channels_last", "dilation_rate": [1, 1], "activation": "linear", "use_bias": false, "kernel_initializer": {"class_name": "VarianceScaling", "config": {"scale": 1.0, "mode": "fan_avg", "distribution": "uniform", "seed": null}}, "bias_initializer": {"class_name": "Zeros", "config": {}}, "kernel_regularizer": null, "bias_regularizer": null, "activity_regularizer": null, "kernel_constraint": null, "bias_constraint": null}, "inbound_nodes": [[["activation_73", 0, 0, {}]]]}, {"name": "batch_normalization_74", "class_name": "BatchNormalization", "config": {"name": "batch_normalization_74", "trainable": false, "axis": 3, "momentum": 0.99, "epsilon": 0.001, "center": true, "scale": false, "beta_initializer": {"class_name": "Zeros", "config": {}}, "gamma_initializer": {"class_name": "Ones", "config": {}}, "moving_mean_initializer": {"class_name": "Zeros", "config": {}}, "moving_variance_initializer": {"class_name": "Ones", "config": {}}, "beta_regularizer": null, "gamma_regularizer": null, "beta_constraint": null, "gamma_constraint": null}, "inbound_nodes": [[["conv2d_74", 0, 0, {}]]]}, {"name": "activation_74", "class_name": "Activation", "config": {"name": "activation_74", "trainable": false, "activation": "relu"}, "inbound_nodes": [[["batch_normalization_74", 0, 0, {}]]]}, {"name": "conv2d_71", "class_name": "Conv2D", "config": {"name": "conv2d_71", "trainable": false, "filters": 192, "kernel_size": [1, 1], "strides": [1, 1], "padding": "same", "data_format": "channels_last", "dilation_rate": [1, 1], "activation": "linear", "use_bias": false, "kernel_initializer": {"class_name": "VarianceScaling", "config": {"scale": 1.0, "mode": "fan_avg", "distribution": "uniform", "seed": null}}, "bias_initializer": {"class_name": "Zeros", "config": {}}, "kernel_regularizer": null, "bias_regularizer": null, "activity_regularizer": null, "kernel_constraint": null, "bias_constraint": null}, "inbound_nodes": [[["mixed7", 0, 0, {}]]]}, {"name": "conv2d_75", "class_name": "Conv2D", "config": {"name": "conv2d_75", "trainable": false, "filters": 192, "kernel_size": [7, 1], "strides": [1, 1], "padding": "same", "data_format": "channels_last", "dilation_rate": [1, 1], "activation": "linear", "use_bias": false, "kernel_initializer": {"class_name": "VarianceScaling", "config": {"scale": 1.0, "mode": "fan_avg", "distribution": "uniform", "seed": null}}, "bias_initializer": {"class_name": "Zeros", "config": {}}, "kernel_regularizer": null, "bias_regularizer": null, "activity_regularizer": null, "kernel_constraint": null, "bias_constraint": null}, "inbound_nodes": [[["activation_74", 0, 0, {}]]]}, {"name": "batch_normalization_71", "class_name": "BatchNormalization", "config": {"name": "batch_normalization_71", "trainable": false, "axis": 3, "momentum": 0.99, "epsilon": 0.001, "center": true, "scale": false, "beta_initializer": {"class_name": "Zeros", "config": {}}, "gamma_initializer": {"class_name": "Ones", "config": {}}, "moving_mean_initializer": {"class_name": "Zeros", "config": {}}, "moving_variance_initializer": {"class_name": "Ones", "config": {}}, "beta_regularizer": null, "gamma_regularizer": null, "beta_constraint": null, "gamma_constraint": null}, "inbound_nodes": [[["conv2d_71", 0, 0, {}]]]}, {"name": "batch_normalization_75", "class_name": "BatchNormalization", "config": {"name": "batch_normalization_75", "trainable": false, "axis": 3, "momentum": 0.99, "epsilon": 0.001, "center": true, "scale": false, "beta_initializer": {"class_name": "Zeros", "config": {}}, "gamma_initializer": {"class_name": "Ones", "config": {}}, "moving_mean_initializer": {"class_name": "Zeros", "config": {}}, "moving_variance_initializer": {"class_name": "Ones", "config": {}}, "beta_regularizer": null, "gamma_regularizer": null, "beta_constraint": null, "gamma_constraint": null}, "inbound_nodes": [[["conv2d_75", 0, 0, {}]]]}, {"name": "activation_71", "class_name": "Activation", "config": {"name": "activation_71", "trainable": false, "activation": "relu"}, "inbound_nodes": [[["batch_normalization_71", 0, 0, {}]]]}, {"name": "activation_75", "class_name": "Activation", "config": {"name": "activation_75", "trainable": false, "activation": "relu"}, "inbound_nodes": [[["batch_normalization_75", 0, 0, {}]]]}, {"name": "conv2d_72", "class_name": "Conv2D", "config": {"name": "conv2d_72", "trainable": false, "filters": 320, "kernel_size": [3, 3], "strides": [2, 2], "padding": "valid", "data_format": "channels_last", "dilation_rate": [1, 1], "activation": "linear", "use_bias": false, "kernel_initializer": {"class_name": "VarianceScaling", "config": {"scale": 1.0, "mode": "fan_avg", "distribution": "uniform", "seed": null}}, "bias_initializer": {"class_name": "Zeros", "config": {}}, "kernel_regularizer": null, "bias_regularizer": null, "activity_regularizer": null, "kernel_constraint": null, "bias_constraint": null}, "inbound_nodes": [[["activation_71", 0, 0, {}]]]}, {"name": "conv2d_76", "class_name": "Conv2D", "config": {"name": "conv2d_76", "trainable": false, "filters": 192, "kernel_size": [3, 3], "strides": [2, 2], "padding": "valid", "data_format": "channels_last", "dilation_rate": [1, 1], "activation": "linear", "use_bias": false, "kernel_initializer": {"class_name": "VarianceScaling", "config": {"scale": 1.0, "mode": "fan_avg", "distribution": "uniform", "seed": null}}, "bias_initializer": {"class_name": "Zeros", "config": {}}, "kernel_regularizer": null, "bias_regularizer": null, "activity_regularizer": null, "kernel_constraint": null, "bias_constraint": null}, "inbound_nodes": [[["activation_75", 0, 0, {}]]]}, {"name": "batch_normalization_72", "class_name": "BatchNormalization", "config": {"name": "batch_normalization_72", "trainable": false, "axis": 3, "momentum": 0.99, "epsilon": 0.001, "center": true, "scale": false, "beta_initializer": {"class_name": "Zeros", "config": {}}, "gamma_initializer": {"class_name": "Ones", "config": {}}, "moving_mean_initializer": {"class_name": "Zeros", "config": {}}, "moving_variance_initializer": {"class_name": "Ones", "config": {}}, "beta_regularizer": null, "gamma_regularizer": null, "beta_constraint": null, "gamma_constraint": null}, "inbound_nodes": [[["conv2d_72", 0, 0, {}]]]}, {"name": "batch_normalization_76", "class_name": "BatchNormalization", "config": {"name": "batch_normalization_76", "trainable": false, "axis": 3, "momentum": 0.99, "epsilon": 0.001, "center": true, "scale": false, "beta_initializer": {"class_name": "Zeros", "config": {}}, "gamma_initializer": {"class_name": "Ones", "config": {}}, "moving_mean_initializer": {"class_name": "Zeros", "config": {}}, "moving_variance_initializer": {"class_name": "Ones", "config": {}}, "beta_regularizer": null, "gamma_regularizer": null, "beta_constraint": null, "gamma_constraint": null}, "inbound_nodes": [[["conv2d_76", 0, 0, {}]]]}, {"name": "activation_72", "class_name": "Activation", "config": {"name": "activation_72", "trainable": false, "activation": "relu"}, "inbound_nodes": [[["batch_normalization_72", 0, 0, {}]]]}, {"name": "activation_76", "class_name": "Activation", "config": {"name": "activation_76", "trainable": false, "activation": "relu"}, "inbound_nodes": [[["batch_normalization_76", 0, 0, {}]]]}, {"name": "max_pooling2d_4", "class_name": "MaxPooling2D", "config": {"name": "max_pooling2d_4", "trainable": false, "pool_size": [3, 3], "padding": "valid", "strides": [2, 2], "data_format": "channels_last"}, "inbound_nodes": [[["mixed7", 0, 0, {}]]]}, {"name": "mixed8", "class_name": "Concatenate", "config": {"name": "mixed8", "trainable": false, "axis": 3}, "inbound_nodes": [[["activation_72", 0, 0, {}], ["activation_76", 0, 0, {}], ["max_pooling2d_4", 0, 0, {}]]]}, {"name": "conv2d_81", "class_name": "Conv2D", "config": {"name": "conv2d_81", "trainable": false, "filters": 448, "kernel_size": [1, 1], "strides": [1, 1], "padding": "same", "data_format": "channels_last", "dilation_rate": [1, 1], "activation": "linear", "use_bias": false, "kernel_initializer": {"class_name": "VarianceScaling", "config": {"scale": 1.0, "mode": "fan_avg", "distribution": "uniform", "seed": null}}, "bias_initializer": {"class_name": "Zeros", "config": {}}, "kernel_regularizer": null, "bias_regularizer": null, "activity_regularizer": null, "kernel_constraint": null, "bias_constraint": null}, "inbound_nodes": [[["mixed8", 0, 0, {}]]]}, {"name": "batch_normalization_81", "class_name": "BatchNormalization", "config": {"name": "batch_normalization_81", "trainable": false, "axis": 3, "momentum": 0.99, "epsilon": 0.001, "center": true, "scale": false, "beta_initializer": {"class_name": "Zeros", "config": {}}, "gamma_initializer": {"class_name": "Ones", "config": {}}, "moving_mean_initializer": {"class_name": "Zeros", "config": {}}, "moving_variance_initializer": {"class_name": "Ones", "config": {}}, "beta_regularizer": null, "gamma_regularizer": null, "beta_constraint": null, "gamma_constraint": null}, "inbound_nodes": [[["conv2d_81", 0, 0, {}]]]}, {"name": "activation_81", "class_name": "Activation", "config": {"name": "activation_81", "trainable": false, "activation": "relu"}, "inbound_nodes": [[["batch_normalization_81", 0, 0, {}]]]}, {"name": "conv2d_78", "class_name": "Conv2D", "config": {"name": "conv2d_78", "trainable": false, "filters": 384, "kernel_size": [1, 1], "strides": [1, 1], "padding": "same", "data_format": "channels_last", "dilation_rate": [1, 1], "activation": "linear", "use_bias": false, "kernel_initializer": {"class_name": "VarianceScaling", "config": {"scale": 1.0, "mode": "fan_avg", "distribution": "uniform", "seed": null}}, "bias_initializer": {"class_name": "Zeros", "config": {}}, "kernel_regularizer": null, "bias_regularizer": null, "activity_regularizer": null, "kernel_constraint": null, "bias_constraint": null}, "inbound_nodes": [[["mixed8", 0, 0, {}]]]}, {"name": "conv2d_82", "class_name": "Conv2D", "config": {"name": "conv2d_82", "trainable": false, "filters": 384, "kernel_size": [3, 3], "strides": [1, 1], "padding": "same", "data_format": "channels_last", "dilation_rate": [1, 1], "activation": "linear", "use_bias": false, "kernel_initializer": {"class_name": "VarianceScaling", "config": {"scale": 1.0, "mode": "fan_avg", "distribution": "uniform", "seed": null}}, "bias_initializer": {"class_name": "Zeros", "config": {}}, "kernel_regularizer": null, "bias_regularizer": null, "activity_regularizer": null, "kernel_constraint": null, "bias_constraint": null}, "inbound_nodes": [[["activation_81", 0, 0, {}]]]}, {"name": "batch_normalization_78", "class_name": "BatchNormalization", "config": {"name": "batch_normalization_78", "trainable": false, "axis": 3, "momentum": 0.99, "epsilon": 0.001, "center": true, "scale": false, "beta_initializer": {"class_name": "Zeros", "config": {}}, "gamma_initializer": {"class_name": "Ones", "config": {}}, "moving_mean_initializer": {"class_name": "Zeros", "config": {}}, "moving_variance_initializer": {"class_name": "Ones", "config": {}}, "beta_regularizer": null, "gamma_regularizer": null, "beta_constraint": null, "gamma_constraint": null}, "inbound_nodes": [[["conv2d_78", 0, 0, {}]]]}, {"name": "batch_normalization_82", "class_name": "BatchNormalization", "config": {"name": "batch_normalization_82", "trainable": false, "axis": 3, "momentum": 0.99, "epsilon": 0.001, "center": true, "scale": false, "beta_initializer": {"class_name": "Zeros", "config": {}}, "gamma_initializer": {"class_name": "Ones", "config": {}}, "moving_mean_initializer": {"class_name": "Zeros", "config": {}}, "moving_variance_initializer": {"class_name": "Ones", "config": {}}, "beta_regularizer": null, "gamma_regularizer": null, "beta_constraint": null, "gamma_constraint": null}, "inbound_nodes": [[["conv2d_82", 0, 0, {}]]]}, {"name": "activation_78", "class_name": "Activation", "config": {"name": "activation_78", "trainable": false, "activation": "relu"}, "inbound_nodes": [[["batch_normalization_78", 0, 0, {}]]]}, {"name": "activation_82", "class_name": "Activation", "config": {"name": "activation_82", "trainable": false, "activation": "relu"}, "inbound_nodes": [[["batch_normalization_82", 0, 0, {}]]]}, {"name": "conv2d_79", "class_name": "Conv2D", "config": {"name": "conv2d_79", "trainable": false, "filters": 384, "kernel_size": [1, 3], "strides": [1, 1], "padding": "same", "data_format": "channels_last", "dilation_rate": [1, 1], "activation": "linear", "use_bias": false, "kernel_initializer": {"class_name": "VarianceScaling", "config": {"scale": 1.0, "mode": "fan_avg", "distribution": "uniform", "seed": null}}, "bias_initializer": {"class_name": "Zeros", "config": {}}, "kernel_regularizer": null, "bias_regularizer": null, "activity_regularizer": null, "kernel_constraint": null, "bias_constraint": null}, "inbound_nodes": [[["activation_78", 0, 0, {}]]]}, {"name": "conv2d_80", "class_name": "Conv2D", "config": {"name": "conv2d_80", "trainable": false, "filters": 384, "kernel_size": [3, 1], "strides": [1, 1], "padding": "same", "data_format": "channels_last", "dilation_rate": [1, 1], "activation": "linear", "use_bias": false, "kernel_initializer": {"class_name": "VarianceScaling", "config": {"scale": 1.0, "mode": "fan_avg", "distribution": "uniform", "seed": null}}, "bias_initializer": {"class_name": "Zeros", "config": {}}, "kernel_regularizer": null, "bias_regularizer": null, "activity_regularizer": null, "kernel_constraint": null, "bias_constraint": null}, "inbound_nodes": [[["activation_78", 0, 0, {}]]]}, {"name": "conv2d_83", "class_name": "Conv2D", "config": {"name": "conv2d_83", "trainable": false, "filters": 384, "kernel_size": [1, 3], "strides": [1, 1], "padding": "same", "data_format": "channels_last", "dilation_rate": [1, 1], "activation": "linear", "use_bias": false, "kernel_initializer": {"class_name": "VarianceScaling", "config": {"scale": 1.0, "mode": "fan_avg", "distribution": "uniform", "seed": null}}, "bias_initializer": {"class_name": "Zeros", "config": {}}, "kernel_regularizer": null, "bias_regularizer": null, "activity_regularizer": null, "kernel_constraint": null, "bias_constraint": null}, "inbound_nodes": [[["activation_82", 0, 0, {}]]]}, {"name": "conv2d_84", "class_name": "Conv2D", "config": {"name": "conv2d_84", "trainable": false, "filters": 384, "kernel_size": [3, 1], "strides": [1, 1], "padding": "same", "data_format": "channels_last", "dilation_rate": [1, 1], "activation": "linear", "use_bias": false, "kernel_initializer": {"class_name": "VarianceScaling", "config": {"scale": 1.0, "mode": "fan_avg", "distribution": "uniform", "seed": null}}, "bias_initializer": {"class_name": "Zeros", "config": {}}, "kernel_regularizer": null, "bias_regularizer": null, "activity_regularizer": null, "kernel_constraint": null, "bias_constraint": null}, "inbound_nodes": [[["activation_82", 0, 0, {}]]]}, {"name": "average_pooling2d_8", "class_name": "AveragePooling2D", "config": {"name": "average_pooling2d_8", "trainable": false, "pool_size": [3, 3], "padding": "same", "strides": [1, 1], "data_format": "channels_last"}, "inbound_nodes": [[["mixed8", 0, 0, {}]]]}, {"name": "conv2d_77", "class_name": "Conv2D", "config": {"name": "conv2d_77", "trainable": false, "filters": 320, "kernel_size": [1, 1], "strides": [1, 1], "padding": "same", "data_format": "channels_last", "dilation_rate": [1, 1], "activation": "linear", "use_bias": false, "kernel_initializer": {"class_name": "VarianceScaling", "config": {"scale": 1.0, "mode": "fan_avg", "distribution": "uniform", "seed": null}}, "bias_initializer": {"class_name": "Zeros", "config": {}}, "kernel_regularizer": null, "bias_regularizer": null, "activity_regularizer": null, "kernel_constraint": null, "bias_constraint": null}, "inbound_nodes": [[["mixed8", 0, 0, {}]]]}, {"name": "batch_normalization_79", "class_name": "BatchNormalization", "config": {"name": "batch_normalization_79", "trainable": false, "axis": 3, "momentum": 0.99, "epsilon": 0.001, "center": true, "scale": false, "beta_initializer": {"class_name": "Zeros", "config": {}}, "gamma_initializer": {"class_name": "Ones", "config": {}}, "moving_mean_initializer": {"class_name": "Zeros", "config": {}}, "moving_variance_initializer": {"class_name": "Ones", "config": {}}, "beta_regularizer": null, "gamma_regularizer": null, "beta_constraint": null, "gamma_constraint": null}, "inbound_nodes": [[["conv2d_79", 0, 0, {}]]]}, {"name": "batch_normalization_80", "class_name": "BatchNormalization", "config": {"name": "batch_normalization_80", "trainable": false, "axis": 3, "momentum": 0.99, "epsilon": 0.001, "center": true, "scale": false, "beta_initializer": {"class_name": "Zeros", "config": {}}, "gamma_initializer": {"class_name": "Ones", "config": {}}, "moving_mean_initializer": {"class_name": "Zeros", "config": {}}, "moving_variance_initializer": {"class_name": "Ones", "config": {}}, "beta_regularizer": null, "gamma_regularizer": null, "beta_constraint": null, "gamma_constraint": null}, "inbound_nodes": [[["conv2d_80", 0, 0, {}]]]}, {"name": "batch_normalization_83", "class_name": "BatchNormalization", "config": {"name": "batch_normalization_83", "trainable": false, "axis": 3, "momentum": 0.99, "epsilon": 0.001, "center": true, "scale": false, "beta_initializer": {"class_name": "Zeros", "config": {}}, "gamma_initializer": {"class_name": "Ones", "config": {}}, "moving_mean_initializer": {"class_name": "Zeros", "config": {}}, "moving_variance_initializer": {"class_name": "Ones", "config": {}}, "beta_regularizer": null, "gamma_regularizer": null, "beta_constraint": null, "gamma_constraint": null}, "inbound_nodes": [[["conv2d_83", 0, 0, {}]]]}, {"name": "batch_normalization_84", "class_name": "BatchNormalization", "config": {"name": "batch_normalization_84", "trainable": false, "axis": 3, "momentum": 0.99, "epsilon": 0.001, "center": true, "scale": false, "beta_initializer": {"class_name": "Zeros", "config": {}}, "gamma_initializer": {"class_name": "Ones", "config": {}}, "moving_mean_initializer": {"class_name": "Zeros", "config": {}}, "moving_variance_initializer": {"class_name": "Ones", "config": {}}, "beta_regularizer": null, "gamma_regularizer": null, "beta_constraint": null, "gamma_constraint": null}, "inbound_nodes": [[["conv2d_84", 0, 0, {}]]]}, {"name": "conv2d_85", "class_name": "Conv2D", "config": {"name": "conv2d_85", "trainable": false, "filters": 192, "kernel_size": [1, 1], "strides": [1, 1], "padding": "same", "data_format": "channels_last", "dilation_rate": [1, 1], "activation": "linear", "use_bias": false, "kernel_initializer": {"class_name": "VarianceScaling", "config": {"scale": 1.0, "mode": "fan_avg", "distribution": "uniform", "seed": null}}, "bias_initializer": {"class_name": "Zeros", "config": {}}, "kernel_regularizer": null, "bias_regularizer": null, "activity_regularizer": null, "kernel_constraint": null, "bias_constraint": null}, "inbound_nodes": [[["average_pooling2d_8", 0, 0, {}]]]}, {"name": "batch_normalization_77", "class_name": "BatchNormalization", "config": {"name": "batch_normalization_77", "trainable": false, "axis": 3, "momentum": 0.99, "epsilon": 0.001, "center": true, "scale": false, "beta_initializer": {"class_name": "Zeros", "config": {}}, "gamma_initializer": {"class_name": "Ones", "config": {}}, "moving_mean_initializer": {"class_name": "Zeros", "config": {}}, "moving_variance_initializer": {"class_name": "Ones", "config": {}}, "beta_regularizer": null, "gamma_regularizer": null, "beta_constraint": null, "gamma_constraint": null}, "inbound_nodes": [[["conv2d_77", 0, 0, {}]]]}, {"name": "activation_79", "class_name": "Activation", "config": {"name": "activation_79", "trainable": false, "activation": "relu"}, "inbound_nodes": [[["batch_normalization_79", 0, 0, {}]]]}, {"name": "activation_80", "class_name": "Activation", "config": {"name": "activation_80", "trainable": false, "activation": "relu"}, "inbound_nodes": [[["batch_normalization_80", 0, 0, {}]]]}, {"name": "activation_83", "class_name": "Activation", "config": {"name": "activation_83", "trainable": false, "activation": "relu"}, "inbound_nodes": [[["batch_normalization_83", 0, 0, {}]]]}, {"name": "activation_84", "class_name": "Activation", "config": {"name": "activation_84", "trainable": false, "activation": "relu"}, "inbound_nodes": [[["batch_normalization_84", 0, 0, {}]]]}, {"name": "batch_normalization_85", "class_name": "BatchNormalization", "config": {"name": "batch_normalization_85", "trainable": false, "axis": 3, "momentum": 0.99, "epsilon": 0.001, "center": true, "scale": false, "beta_initializer": {"class_name": "Zeros", "config": {}}, "gamma_initializer": {"class_name": "Ones", "config": {}}, "moving_mean_initializer": {"class_name": "Zeros", "config": {}}, "moving_variance_initializer": {"class_name": "Ones", "config": {}}, "beta_regularizer": null, "gamma_regularizer": null, "beta_constraint": null, "gamma_constraint": null}, "inbound_nodes": [[["conv2d_85", 0, 0, {}]]]}, {"name": "activation_77", "class_name": "Activation", "config": {"name": "activation_77", "trainable": false, "activation": "relu"}, "inbound_nodes": [[["batch_normalization_77", 0, 0, {}]]]}, {"name": "mixed9_0", "class_name": "Concatenate", "config": {"name": "mixed9_0", "trainable": false, "axis": 3}, "inbound_nodes": [[["activation_79", 0, 0, {}], ["activation_80", 0, 0, {}]]]}, {"name": "concatenate_1", "class_name": "Concatenate", "config": {"name": "concatenate_1", "trainable": false, "axis": 3}, "inbound_nodes": [[["activation_83", 0, 0, {}], ["activation_84", 0, 0, {}]]]}, {"name": "activation_85", "class_name": "Activation", "config": {"name": "activation_85", "trainable": false, "activation": "relu"}, "inbound_nodes": [[["batch_normalization_85", 0, 0, {}]]]}, {"name": "mixed9", "class_name": "Concatenate", "config": {"name": "mixed9", "trainable": false, "axis": 3}, "inbound_nodes": [[["activation_77", 0, 0, {}], ["mixed9_0", 0, 0, {}], ["concatenate_1", 0, 0, {}], ["activation_85", 0, 0, {}]]]}, {"name": "conv2d_90", "class_name": "Conv2D", "config": {"name": "conv2d_90", "trainable": false, "filters": 448, "kernel_size": [1, 1], "strides": [1, 1], "padding": "same", "data_format": "channels_last", "dilation_rate": [1, 1], "activation": "linear", "use_bias": false, "kernel_initializer": {"class_name": "VarianceScaling", "config": {"scale": 1.0, "mode": "fan_avg", "distribution": "uniform", "seed": null}}, "bias_initializer": {"class_name": "Zeros", "config": {}}, "kernel_regularizer": null, "bias_regularizer": null, "activity_regularizer": null, "kernel_constraint": null, "bias_constraint": null}, "inbound_nodes": [[["mixed9", 0, 0, {}]]]}, {"name": "batch_normalization_90", "class_name": "BatchNormalization", "config": {"name": "batch_normalization_90", "trainable": false, "axis": 3, "momentum": 0.99, "epsilon": 0.001, "center": true, "scale": false, "beta_initializer": {"class_name": "Zeros", "config": {}}, "gamma_initializer": {"class_name": "Ones", "config": {}}, "moving_mean_initializer": {"class_name": "Zeros", "config": {}}, "moving_variance_initializer": {"class_name": "Ones", "config": {}}, "beta_regularizer": null, "gamma_regularizer": null, "beta_constraint": null, "gamma_constraint": null}, "inbound_nodes": [[["conv2d_90", 0, 0, {}]]]}, {"name": "activation_90", "class_name": "Activation", "config": {"name": "activation_90", "trainable": false, "activation": "relu"}, "inbound_nodes": [[["batch_normalization_90", 0, 0, {}]]]}, {"name": "conv2d_87", "class_name": "Conv2D", "config": {"name": "conv2d_87", "trainable": false, "filters": 384, "kernel_size": [1, 1], "strides": [1, 1], "padding": "same", "data_format": "channels_last", "dilation_rate": [1, 1], "activation": "linear", "use_bias": false, "kernel_initializer": {"class_name": "VarianceScaling", "config": {"scale": 1.0, "mode": "fan_avg", "distribution": "uniform", "seed": null}}, "bias_initializer": {"class_name": "Zeros", "config": {}}, "kernel_regularizer": null, "bias_regularizer": null, "activity_regularizer": null, "kernel_constraint": null, "bias_constraint": null}, "inbound_nodes": [[["mixed9", 0, 0, {}]]]}, {"name": "conv2d_91", "class_name": "Conv2D", "config": {"name": "conv2d_91", "trainable": false, "filters": 384, "kernel_size": [3, 3], "strides": [1, 1], "padding": "same", "data_format": "channels_last", "dilation_rate": [1, 1], "activation": "linear", "use_bias": false, "kernel_initializer": {"class_name": "VarianceScaling", "config": {"scale": 1.0, "mode": "fan_avg", "distribution": "uniform", "seed": null}}, "bias_initializer": {"class_name": "Zeros", "config": {}}, "kernel_regularizer": null, "bias_regularizer": null, "activity_regularizer": null, "kernel_constraint": null, "bias_constraint": null}, "inbound_nodes": [[["activation_90", 0, 0, {}]]]}, {"name": "batch_normalization_87", "class_name": "BatchNormalization", "config": {"name": "batch_normalization_87", "trainable": false, "axis": 3, "momentum": 0.99, "epsilon": 0.001, "center": true, "scale": false, "beta_initializer": {"class_name": "Zeros", "config": {}}, "gamma_initializer": {"class_name": "Ones", "config": {}}, "moving_mean_initializer": {"class_name": "Zeros", "config": {}}, "moving_variance_initializer": {"class_name": "Ones", "config": {}}, "beta_regularizer": null, "gamma_regularizer": null, "beta_constraint": null, "gamma_constraint": null}, "inbound_nodes": [[["conv2d_87", 0, 0, {}]]]}, {"name": "batch_normalization_91", "class_name": "BatchNormalization", "config": {"name": "batch_normalization_91", "trainable": false, "axis": 3, "momentum": 0.99, "epsilon": 0.001, "center": true, "scale": false, "beta_initializer": {"class_name": "Zeros", "config": {}}, "gamma_initializer": {"class_name": "Ones", "config": {}}, "moving_mean_initializer": {"class_name": "Zeros", "config": {}}, "moving_variance_initializer": {"class_name": "Ones", "config": {}}, "beta_regularizer": null, "gamma_regularizer": null, "beta_constraint": null, "gamma_constraint": null}, "inbound_nodes": [[["conv2d_91", 0, 0, {}]]]}, {"name": "activation_87", "class_name": "Activation", "config": {"name": "activation_87", "trainable": false, "activation": "relu"}, "inbound_nodes": [[["batch_normalization_87", 0, 0, {}]]]}, {"name": "activation_91", "class_name": "Activation", "config": {"name": "activation_91", "trainable": false, "activation": "relu"}, "inbound_nodes": [[["batch_normalization_91", 0, 0, {}]]]}, {"name": "conv2d_88", "class_name": "Conv2D", "config": {"name": "conv2d_88", "trainable": false, "filters": 384, "kernel_size": [1, 3], "strides": [1, 1], "padding": "same", "data_format": "channels_last", "dilation_rate": [1, 1], "activation": "linear", "use_bias": false, "kernel_initializer": {"class_name": "VarianceScaling", "config": {"scale": 1.0, "mode": "fan_avg", "distribution": "uniform", "seed": null}}, "bias_initializer": {"class_name": "Zeros", "config": {}}, "kernel_regularizer": null, "bias_regularizer": null, "activity_regularizer": null, "kernel_constraint": null, "bias_constraint": null}, "inbound_nodes": [[["activation_87", 0, 0, {}]]]}, {"name": "conv2d_89", "class_name": "Conv2D", "config": {"name": "conv2d_89", "trainable": false, "filters": 384, "kernel_size": [3, 1], "strides": [1, 1], "padding": "same", "data_format": "channels_last", "dilation_rate": [1, 1], "activation": "linear", "use_bias": false, "kernel_initializer": {"class_name": "VarianceScaling", "config": {"scale": 1.0, "mode": "fan_avg", "distribution": "uniform", "seed": null}}, "bias_initializer": {"class_name": "Zeros", "config": {}}, "kernel_regularizer": null, "bias_regularizer": null, "activity_regularizer": null, "kernel_constraint": null, "bias_constraint": null}, "inbound_nodes": [[["activation_87", 0, 0, {}]]]}, {"name": "conv2d_92", "class_name": "Conv2D", "config": {"name": "conv2d_92", "trainable": false, "filters": 384, "kernel_size": [1, 3], "strides": [1, 1], "padding": "same", "data_format": "channels_last", "dilation_rate": [1, 1], "activation": "linear", "use_bias": false, "kernel_initializer": {"class_name": "VarianceScaling", "config": {"scale": 1.0, "mode": "fan_avg", "distribution": "uniform", "seed": null}}, "bias_initializer": {"class_name": "Zeros", "config": {}}, "kernel_regularizer": null, "bias_regularizer": null, "activity_regularizer": null, "kernel_constraint": null, "bias_constraint": null}, "inbound_nodes": [[["activation_91", 0, 0, {}]]]}, {"name": "conv2d_93", "class_name": "Conv2D", "config": {"name": "conv2d_93", "trainable": false, "filters": 384, "kernel_size": [3, 1], "strides": [1, 1], "padding": "same", "data_format": "channels_last", "dilation_rate": [1, 1], "activation": "linear", "use_bias": false, "kernel_initializer": {"class_name": "VarianceScaling", "config": {"scale": 1.0, "mode": "fan_avg", "distribution": "uniform", "seed": null}}, "bias_initializer": {"class_name": "Zeros", "config": {}}, "kernel_regularizer": null, "bias_regularizer": null, "activity_regularizer": null, "kernel_constraint": null, "bias_constraint": null}, "inbound_nodes": [[["activation_91", 0, 0, {}]]]}, {"name": "average_pooling2d_9", "class_name": "AveragePooling2D", "config": {"name": "average_pooling2d_9", "trainable": false, "pool_size": [3, 3], "padding": "same", "strides": [1, 1], "data_format": "channels_last"}, "inbound_nodes": [[["mixed9", 0, 0, {}]]]}, {"name": "conv2d_86", "class_name": "Conv2D", "config": {"name": "conv2d_86", "trainable": true, "filters": 320, "kernel_size": [1, 1], "strides": [1, 1], "padding": "same", "data_format": "channels_last", "dilation_rate": [1, 1], "activation": "linear", "use_bias": false, "kernel_initializer": {"class_name": "VarianceScaling", "config": {"scale": 1.0, "mode": "fan_avg", "distribution": "uniform", "seed": null}}, "bias_initializer": {"class_name": "Zeros", "config": {}}, "kernel_regularizer": null, "bias_regularizer": null, "activity_regularizer": null, "kernel_constraint": null, "bias_constraint": null}, "inbound_nodes": [[["mixed9", 0, 0, {}]]]}, {"name": "batch_normalization_88", "class_name": "BatchNormalization", "config": {"name": "batch_normalization_88", "trainable": true, "axis": 3, "momentum": 0.99, "epsilon": 0.001, "center": true, "scale": false, "beta_initializer": {"class_name": "Zeros", "config": {}}, "gamma_initializer": {"class_name": "Ones", "config": {}}, "moving_mean_initializer": {"class_name": "Zeros", "config": {}}, "moving_variance_initializer": {"class_name": "Ones", "config": {}}, "beta_regularizer": null, "gamma_regularizer": null, "beta_constraint": null, "gamma_constraint": null}, "inbound_nodes": [[["conv2d_88", 0, 0, {}]]]}, {"name": "batch_normalization_89", "class_name": "BatchNormalization", "config": {"name": "batch_normalization_89", "trainable": true, "axis": 3, "momentum": 0.99, "epsilon": 0.001, "center": true, "scale": false, "beta_initializer": {"class_name": "Zeros", "config": {}}, "gamma_initializer": {"class_name": "Ones", "config": {}}, "moving_mean_initializer": {"class_name": "Zeros", "config": {}}, "moving_variance_initializer": {"class_name": "Ones", "config": {}}, "beta_regularizer": null, "gamma_regularizer": null, "beta_constraint": null, "gamma_constraint": null}, "inbound_nodes": [[["conv2d_89", 0, 0, {}]]]}, {"name": "batch_normalization_92", "class_name": "BatchNormalization", "config": {"name": "batch_normalization_92", "trainable": true, "axis": 3, "momentum": 0.99, "epsilon": 0.001, "center": true, "scale": false, "beta_initializer": {"class_name": "Zeros", "config": {}}, "gamma_initializer": {"class_name": "Ones", "config": {}}, "moving_mean_initializer": {"class_name": "Zeros", "config": {}}, "moving_variance_initializer": {"class_name": "Ones", "config": {}}, "beta_regularizer": null, "gamma_regularizer": null, "beta_constraint": null, "gamma_constraint": null}, "inbound_nodes": [[["conv2d_92", 0, 0, {}]]]}, {"name": "batch_normalization_93", "class_name": "BatchNormalization", "config": {"name": "batch_normalization_93", "trainable": true, "axis": 3, "momentum": 0.99, "epsilon": 0.001, "center": true, "scale": false, "beta_initializer": {"class_name": "Zeros", "config": {}}, "gamma_initializer": {"class_name": "Ones", "config": {}}, "moving_mean_initializer": {"class_name": "Zeros", "config": {}}, "moving_variance_initializer": {"class_name": "Ones", "config": {}}, "beta_regularizer": null, "gamma_regularizer": null, "beta_constraint": null, "gamma_constraint": null}, "inbound_nodes": [[["conv2d_93", 0, 0, {}]]]}, {"name": "conv2d_94", "class_name": "Conv2D", "config": {"name": "conv2d_94", "trainable": true, "filters": 192, "kernel_size": [1, 1], "strides": [1, 1], "padding": "same", "data_format": "channels_last", "dilation_rate": [1, 1], "activation": "linear", "use_bias": false, "kernel_initializer": {"class_name": "VarianceScaling", "config": {"scale": 1.0, "mode": "fan_avg", "distribution": "uniform", "seed": null}}, "bias_initializer": {"class_name": "Zeros", "config": {}}, "kernel_regularizer": null, "bias_regularizer": null, "activity_regularizer": null, "kernel_constraint": null, "bias_constraint": null}, "inbound_nodes": [[["average_pooling2d_9", 0, 0, {}]]]}, {"name": "batch_normalization_86", "class_name": "BatchNormalization", "config": {"name": "batch_normalization_86", "trainable": true, "axis": 3, "momentum": 0.99, "epsilon": 0.001, "center": true, "scale": false, "beta_initializer": {"class_name": "Zeros", "config": {}}, "gamma_initializer": {"class_name": "Ones", "config": {}}, "moving_mean_initializer": {"class_name": "Zeros", "config": {}}, "moving_variance_initializer": {"class_name": "Ones", "config": {}}, "beta_regularizer": null, "gamma_regularizer": null, "beta_constraint": null, "gamma_constraint": null}, "inbound_nodes": [[["conv2d_86", 0, 0, {}]]]}, {"name": "activation_88", "class_name": "Activation", "config": {"name": "activation_88", "trainable": true, "activation": "relu"}, "inbound_nodes": [[["batch_normalization_88", 0, 0, {}]]]}, {"name": "activation_89", "class_name": "Activation", "config": {"name": "activation_89", "trainable": true, "activation": "relu"}, "inbound_nodes": [[["batch_normalization_89", 0, 0, {}]]]}, {"name": "activation_92", "class_name": "Activation", "config": {"name": "activation_92", "trainable": true, "activation": "relu"}, "inbound_nodes": [[["batch_normalization_92", 0, 0, {}]]]}, {"name": "activation_93", "class_name": "Activation", "config": {"name": "activation_93", "trainable": true, "activation": "relu"}, "inbound_nodes": [[["batch_normalization_93", 0, 0, {}]]]}, {"name": "batch_normalization_94", "class_name": "BatchNormalization", "config": {"name": "batch_normalization_94", "trainable": true, "axis": 3, "momentum": 0.99, "epsilon": 0.001, "center": true, "scale": false, "beta_initializer": {"class_name": "Zeros", "config": {}}, "gamma_initializer": {"class_name": "Ones", "config": {}}, "moving_mean_initializer": {"class_name": "Zeros", "config": {}}, "moving_variance_initializer": {"class_name": "Ones", "config": {}}, "beta_regularizer": null, "gamma_regularizer": null, "beta_constraint": null, "gamma_constraint": null}, "inbound_nodes": [[["conv2d_94", 0, 0, {}]]]}, {"name": "activation_86", "class_name": "Activation", "config": {"name": "activation_86", "trainable": true, "activation": "relu"}, "inbound_nodes": [[["batch_normalization_86", 0, 0, {}]]]}, {"name": "mixed9_1", "class_name": "Concatenate", "config": {"name": "mixed9_1", "trainable": true, "axis": 3}, "inbound_nodes": [[["activation_88", 0, 0, {}], ["activation_89", 0, 0, {}]]]}, {"name": "concatenate_2", "class_name": "Concatenate", "config": {"name": "concatenate_2", "trainable": true, "axis": 3}, "inbound_nodes": [[["activation_92", 0, 0, {}], ["activation_93", 0, 0, {}]]]}, {"name": "activation_94", "class_name": "Activation", "config": {"name": "activation_94", "trainable": true, "activation": "relu"}, "inbound_nodes": [[["batch_normalization_94", 0, 0, {}]]]}, {"name": "mixed10", "class_name": "Concatenate", "config": {"name": "mixed10", "trainable": true, "axis": 3}, "inbound_nodes": [[["activation_86", 0, 0, {}], ["mixed9_1", 0, 0, {}], ["concatenate_2", 0, 0, {}], ["activation_94", 0, 0, {}]]]}, {"name": "average_pooling2d_10", "class_name": "AveragePooling2D", "config": {"name": "average_pooling2d_10", "trainable": true, "pool_size": [8, 8], "padding": "valid", "strides": [8, 8], "data_format": "channels_last"}, "inbound_nodes": [[["mixed10", 0, 0, {}]]]}, {"name": "flatten_1", "class_name": "Flatten", "config": {"name": "flatten_1", "trainable": true, "data_format": "channels_last"}, "inbound_nodes": [[["average_pooling2d_10", 0, 0, {}]]]}, {"name": "dense_1", "class_name": "Dense", "config": {"name": "dense_1", "trainable": true, "units": 256, "activation": "relu", "use_bias": true, "kernel_initializer": {"class_name": "VarianceScaling", "config": {"scale": 2.0, "mode": "fan_in", "distribution": "normal", "seed": null}}, "bias_initializer": {"class_name": "Zeros", "config": {}}, "kernel_regularizer": {"class_name": "L1L2", "config": {"l1": 0.0, "l2": 0.0005000000237487257}}, "bias_regularizer": null, "activity_regularizer": null, "kernel_constraint": null, "bias_constraint": null}, "inbound_nodes": [[["flatten_1", 0, 0, {}]]]}, {"name": "dropout_2", "class_name": "Dropout", "config": {"name": "dropout_2", "trainable": true, "rate": 0.5, "noise_shape": null, "seed": null}, "inbound_nodes": [[["dense_1", 0, 0, {}]]]}, {"name": "dense_2", "class_name": "Dense", "config": {"name": "dense_2", "trainable": true, "units": 128, "activation": "relu", "use_bias": true, "kernel_initializer": {"class_name": "VarianceScaling", "config": {"scale": 2.0, "mode": "fan_in", "distribution": "normal", "seed": null}}, "bias_initializer": {"class_name": "Zeros", "config": {}}, "kernel_regularizer": null, "bias_regularizer": null, "activity_regularizer": null, "kernel_constraint": null, "bias_constraint": null}, "inbound_nodes": [[["dropout_2", 0, 0, {}]]]}, {"name": "dropout_3", "class_name": "Dropout", "config": {"name": "dropout_3", "trainable": true, "rate": 0.25, "noise_shape": null, "seed": null}, "inbound_nodes": [[["dense_2", 0, 0, {}]]]}, {"name": "dense_3", "class_name": "Dense", "config": {"name": "dense_3", "trainable": true, "units": 5, "activation": "softmax", "use_bias": true, "kernel_initializer": {"class_name": "VarianceScaling", "config": {"scale": 1.0, "mode": "fan_avg", "distribution": "uniform", "seed": null}}, "bias_initializer": {"class_name": "Zeros", "config": {}}, "kernel_regularizer": null, "bias_regularizer": null, "activity_regularizer": null, "kernel_constraint": null, "bias_constraint": null}, "inbound_nodes": [[["dropout_3", 0, 0, {}]]]}], "input_layers": [["input_1", 0, 0]], "output_layers": [["dense_3", 0, 0]]}}, "training_config": {"optimizer_config": {"class_name": "SGD", "config": {"lr": 3.2000000373955118e-06, "momentum": 0.8999999761581421, "decay": 0.0, "nesterov": false}}, "loss": "categorical_crossentropy", "metrics": ["accuracy"], "sample_weight_mode": null, "loss_weights": null}}, "weightsManifest": [{"paths": ["group1-shard1of6", "group1-shard2of6", "group1-shard3of6", "group1-shard4of6", "group1-shard5of6", "group1-shard6of6"], "weights": [{"name": "batch_normalization_1/beta", "shape": [32], "dtype": "float32", "quantization": {"min": -1.4470329237919228, "scale": 0.022262044981414198, "dtype": "uint8"}}, {"name": "batch_normalization_1/moving_mean", "shape": [32], "dtype": "float32", "quantization": {"min": -1.3392340445051008, "scale": 0.009048878679088518, "dtype": "uint8"}}, {"name": "batch_normalization_1/moving_variance", "shape": [32], "dtype": "float32", "quantization": {"min": 0.0029792252462357283, "scale": 0.002011585912174162, "dtype": "uint8"}}, {"name": "batch_normalization_10/beta", "shape": [96], "dtype": "float32", "quantization": {"min": -1.3942089782041662, "scale": 0.013152914888718548, "dtype": "uint8"}}, {"name": "batch_normalization_10/moving_mean", "shape": [96], "dtype": "float32", "quantization": {"min": -3.4377058178770774, "scale": 0.022322765051149853, "dtype": "uint8"}}, {"name": "batch_normalization_10/moving_variance", "shape": [96], "dtype": "float32", "quantization": {"min": 0.32849419116973877, "scale": 0.0067040401346543255, "dtype": "uint8"}}, {"name": "batch_normalization_11/beta", "shape…
ng_mean", "shape": [192], "dtype": "float32", "quantization": {"min": -3.0378903204319525, "scale": 0.014397584457023471, "dtype": "uint8"}}, {"name": "batch_normalization_39/moving_variance", "shape": [192], "dtype": "float32", "quantization": {"min": 0.13926127552986145, "scale": 0.010081140550912596, "dtype": "uint8"}}, {"name": "batch_normalization_4/beta", "shape": [80], "dtype": "float32", "quantization": {"min": -1.619629228816313, "scale": 0.021595056384217506, "dtype": "uint8"}}, {"name": "batch_normalization_4/moving_mean", "shape": [80], "dtype": "float32", "quantization": {"min": -7.642285971548042, "scale": 0.048676980710497086, "dtype": "uint8"}}, {"name": "batch_normalization_4/moving_variance", "shape": [80], "dtype": "float32", "quantization": {"min": 0.1652865707874298, "scale": 0.027933618017271452, "dtype": "uint8"}}, {"name": "batch_normalization_40/beta", "shape": [192], "dtype": "float32", "quantization": {"min": -1.2992442846298218, "scale": 0.00419156878602271, "dtype": "uint8"}}, {"name": "batch_normalization_40/moving_mean", "shape": [192], "dtype": "float32", "quantization": {"min": -2.384939792109471, "scale": 0.017035284229353364, "dtype": "uint8"}}, {"name": "batch_normalization_40/moving_variance", "shape": [192], "dtype": "float32", "quantization": {"min": 0.06725674867630005, "scale": 0.002992297387590595, "dtype": "uint8"}}, {"name": "batch_normalization_41/beta", "shape": [192], "dtype": "float32", "quantization": {"min": -0.8896247265385646, "scale": 0.013900386352165072, "dtype": "uint8"}}, {"name": "batch_normalization_41/moving_mean", "shape": [192], "dtype": "float32", "quantization": {"min": -1.1002823920810925, "scale": 0.007588154428145465, "dtype": "uint8"}}, {"name": "batch_normalization_41/moving_variance", "shape": [192], "dtype": "float32", "quantization": {"min": 0.22883667051792145, "scale": 0.0062419147468080706, "dtype": "uint8"}}, {"name": "batch_normalization_42/beta", "shape": [160], "dtype": "float32", "quantization": {"min": -1.4175063925630906, "scale": 0.00800851069244684, "dtype": "uint8"}}, {"name": "batch_normalization_42/moving_mean", "shape": [160], "dtype": "float32", "quantization": {"min": -1.06603368918101, "scale": 0.006922296682993571, "dtype": "uint8"}}, {"name": "batch_normalization_42/moving_variance", "shape": [160], "dtype": "float32", "quantization": {"min": 0.16725388169288635, "scale": 0.007173216927285288, "dtype": "uint8"}}, {"name": "batch_normalization_43/beta", "shape": [160], "dtype": "float32", "quantization": {"min": -1.2026210822311103, "scale": 0.006756298214781518, "dtype": "uint8"}}, {"name": "batch_normalization_43/moving_mean", "shape": [160], "dtype": "float32", "quantization": {"min": -1.1263628791360294, "scale": 0.00879970999325023, "dtype": "uint8"}}, {"name": "batch_normalization_43/moving_variance", "shape": [160], "dtype": "float32", "quantization": {"min": 0.1858157068490982, "scale": 0.0035367338680753523, "dtype": "uint8"}}, {"name": "batch_normalization_44/beta", "shape": [192], "dtype": "float32", "quantization": {"min": -1.6851831992467243, "scale": 0.007625263345007803, "dtype": "uint8"}}, {"name": "batch_normalization_44/moving_mean", "shape": [192], "dtype": "float32", "quantization": {"min": -1.3855730304531024, "scale": 0.009968151298223758, "dtype": "uint8"}}, {"name": "batch_normalization_44/moving_variance", "shape": [192], "dtype": "float32", "quantization": {"min": 0.23984774947166443, "scale": 0.004611740509668986, "dtype": "uint8"}}, {"name": "batch_normalization_45/beta", "shape": [160], "dtype": "float32", "quantization": {"min": -1.198061533535228, "scale": 0.009740337671018114, "dtype": "uint8"}}, {"name": "batch_normalization_45/moving_mean", "shape": [160], "dtype": "float32", "quantization": {"min": -1.954274336496989, "scale": 0.022991462782317517, "dtype": "uint8"}}, {"name": "batch_normalization_45/moving_variance", "shape": [160], "dtype": "float32", "quantization": {"min": 0.12165232747793198, "scale": 0.004625043360625997, "dtype": "uint8"}}, {"name": "batch_normalization_46/beta", "shape": [160], "dtype": "float32", "quantization": {"min": -1.2301660285276526, "scale": 0.01079093007480397, "dtype": "uint8"}}, {"name": "batch_normalization_46/moving_mean", "shape": [160], "dtype": "float32", "quantization": {"min": -1.2148393953547758, "scale": 0.008098929302365172, "dtype": "uint8"}}, {"name": "batch_normalization_46/moving_variance", "shape": [160], "dtype": "float32", "quantization": {"min": 0.0945582166314125, "scale": 0.009077410692093418, "dtype": "uint8"}}, {"name": "batch_normalization_47/beta", "shape": [160], "dtype": "float32", "quantization": {"min": -1.4696354982899684, "scale": 0.009481519343806248, "dtype": "uint8"}}, {"name": "batch_normalization_47/moving_mean", "shape": [160], "dtype": "float32", "quantization": {"min": -1.1994350405300365, "scale": 0.007014240003099629, "dtype": "uint8"}}, {"name": "batch_normalization_47/moving_variance", "shape": [160], "dtype": "float32", "quantization": {"min": 0.11140790581703186, "scale": 0.005514528120265288, "dtype": "uint8"}}, {"name": "batch_normalization_48/beta", "shape": [160], "dtype": "float32", "quantization": {"min": -1.5309041387894575, "scale": 0.010206027591929717, "dtype": "uint8"}}, {"name": "batch_normalization_48/moving_mean", "shape": [160], "dtype": "float32", "quantization": {"min": -1.9451826843560909, "scale": 0.012311282812380323, "dtype": "uint8"}}, {"name": "batch_normalization_48/moving_variance", "shape": [160], "dtype": "float32", "quantization": {"min": 0.10514998435974121, "scale": 0.005894911055471383, "dtype": "uint8"}}, {"name": "batch_normalization_49/beta", "shape": [192], "dtype": "float32", "quantization": {"min": -2.14061705271403, "scale": 0.010442034403483073, "dtype": "uint8"}}, {"name": "batch_normalization_49/moving_mean", "shape": [192], "dtype": "float32", "quantization": {"min": -2.2268771409988406, "scale": 0.014554752555547976, "dtype": "uint8"}}, {"name": "batch_normalization_49/moving_variance", "shape": [192], "dtype": "float32", "quantization": {"min": 0.11649957299232483, "scale": 0.012523744971144434, "dtype": "uint8"}}, {"name": "batch_normalization_5/beta", "shape": [192], "dtype": "float32", "quantization": {"min": -1.2072101817411534, "scale": 0.01676680807973824, "dtype": "uint8"}}, {"name": "batch_normalization_5/moving_mean", "shape": [192], "dtype": "float32", "quantization": {"min": -12.276217052983302, "scale": 0.11804054858637791, "dtype": "uint8"}}, {"name": "batch_normalization_5/moving_variance", "shape": [192], "dtype": "float32", "quantization": {"min": 0.5460559725761414, "scale": 0.024879303399254295, "dtype": "uint8"}}, {"name": "batch_normalization_50/beta", "shape": [192], "dtype": "float32", "quantization": {"min": -1.4464423656463623, "scale": 0.00563175964954437, "dtype": "uint8"}}, {"name": "batch_normalization_50/moving_mean", "shape": [192], "dtype": "float32", "quantization": {"min": -0.8957669398363899, "scale": 0.0060524793232188505, "dtype": "uint8"}}, {"name": "batch_normalization_50/moving_variance", "shape": [192], "dtype": "float32", "quantization": {"min": 0.07341840118169785, "scale": 0.0036757070936408696, "dtype": "uint8"}}, {"name": "batch_normalization_51/beta", "shape": [192], "dtype": "float32", "quantization": {"min": -1.1170330346799364, "scale": 0.009008330924838198, "dtype": "uint8"}}, {"name": "batch_normalization_51/moving_mean", "shape": [192], "dtype": "float32", "quantization": {"min": -1.3017795724027297, "scale": 0.00699881490539102, "dtype": "uint8"}}, {"name": "batch_normalization_51/moving_variance", "shape": [192], "dtype": "float32", "quantization": {"min": 0.22522445023059845, "scale": 0.0035175264466042614, "dtype": "uint8"}}, {"name": "batch_normalization_52/beta", "shape": [160], "dtype": "float32", "quantization": {"min": -1.5130189947053498, "scale": 0.007799066983017267, "dtype": "uint8"}}, {"name": "batch_normalization_52/moving_mean", "shape": [160], "dtype": "float32", "quantization": {"min": -1.3259059443193322, "scale": 0.009403588257583917, "dtype": "uint8"}}, {"name": "batch_normalization_52/moving_variance", "shape": [160], "dtype": "float32", "quantization": {"min": 0.12582790851593018, "scale": 0.004701448421852261, "dtype": "uint8"}}, {"name": "batch_normalization_53/beta", "shape": [160], "dtype": "float32", "quantization": {"min": -1.3949207820144354, "scale": 0.008110004546595554, "dtype": "uint8"}}, {"name": "batch_normalization_53/moving_mean", "shape": [160], "dtype": "float32", "quantization": {"min": -0.9411689561956069, "scale": 0.006359249704024371, "dtype": "uint8"}}, {"name": "batch_normalization_53/moving_variance", "shape": [160], "dtype": "float32", "quantization": {"min": 0.12894348800182343, "scale": 0.004459465075941647, "dtype": "uint8"}}, {"name": "batch_normalization_54/beta", "shape": [192], "dtype": "float32", "quantization": {"min": -1.3807061910629272, "scale": 0.0053019731944682555, "dtype": "uint8"}}, {"name": "batch_normalization_54/moving_mean", "shape": [192], "dtype": "float32", "quantization": {"min": -0.9126678765988817, "scale": 0.007130217785928763, "dtype": "uint8"}}, {"name": "batch_normalization_54/moving_variance", "shape": [192], "dtype": "float32", "quantization": {"min": 0.13103976845741272, "scale": 0.002651153241886812, "dtype": "uint8"}}, {"name": "batch_normalization_55/beta", "shape": [160], "dtype": "float32", "quantization": {"min": -1.5728507976905972, "scale": 0.007748033486160578, "dtype": "uint8"}}, {"name": "batch_normalization_55/moving_mean", "shape": [160], "dtype": "float32", "quantization": {"min": -1.1225942415349623, "scale": 0.00870228094213149, "dtype": "uint8"}}, {"name": "batch_normalization_55/moving_variance", "shape": [160], "dtype": "float32", "quantization": {"min": 0.149143785238266, "scale": 0.0036947704997717166, "dtype": "uint8"}}, {"name": "batch_normalization_56/beta", "shape": [160], "dtype": "float32", "quantization": {"min": -1.4230631056953877, "scale": 0.007862227103289435, "dtype": "uint8"}}, {"name": "batch_normalization_56/moving_mean", "shape": [160], "dtype": "float32", "quantization": {"min": -1.049813071419211, "scale": 0.007953129328933417, "dtype": "uint8"}}, {"name": "batch_normalization_56/moving_variance", "shape": [160], "dtype": "float32", "quantization": {"min": 0.16823551058769226, "scale": 0.003556262394961189, "dtype": "uint8"}}, {"name": "batch_normalization_57/beta", "shape": [160], "dtype": "float32", "quantization": {"min": -2.055011763642816, "scale": 0.008782101554029129, "dtype": "uint8"}}, {"name": "batch_normalization_57/moving_mean", "shape": [160], "dtype": "float32", "quantization": {"min": -1.93863078659656, "scale": 0.0110778902091232, "dtype": "uint8"}}, {"name": "batch_normalization_57/moving_variance", "shape": [160], "dtype": "float32", "quantization": {"min": 0.21926383674144745, "scale": 0.0053850728507135424, "dtype": "uint8"}}, {"name": "batch_normalization_58/beta", "shape": [160], "dtype": "float32", "quantization": {"min": -1.165856351104437, "scale": 0.007985317473318062, "dtype": "uint8"}}, {"name": "batch_normalization_58/moving_mean", "shape": [160], "dtype": "float32", "quantization": {"min": -1.253441406698788, "scale": 0.007933173460118912, "dtype": "uint8"}}, {"name": "batch_normalization_58/moving_variance", "shape": [160], "dtype": "float32", "quantization": {"min": 0.14679613709449768, "scale": 0.006860427178588568, "dtype": "uint8"}}, {"name": "batch_normalization_59/beta", "shape": [192], "dtype": "float32", "quantization": {"min": -1.564703649633071, "scale": 0.008890361645642449, "dtype": "uint8"}}, {"name": "batch_normalization_59/moving_mean", "shape": [192], "dtype": "float32", "quantization": {"min": -2.5684914242987538, "scale": 0.013662188427121032, "dtype": "uint8"}}, {"name": "batch_normalization_59/moving_variance", "shape": [192], "dtype": "float32", "quantization": {"min": 0.21087738871574402, "scale": 0.007779311315686095, "dtype": "uint8"}}, {"name": "batch_normalization_6/beta", "shape": [64], "dtype": "float32", "quantization": {"min": -0.4988247050958522, "scale": 0.018474989077624154, "dtype": "uint8"}}, {"name": "batch_normalization_6/moving_mean", "shape": [64], "dtype": "float32", "quantization": {"min": -4.639463159149768, "scale": 0.0473414608076507, "dtype": "uint8"}}, {"name": "batch_normalization_6/moving_variance", "shape": [64], "dtype": "float32", "quantization": {"min": 0.5386254787445068, "scale": 0.025258790745454677, "dtype": "uint8"}}, {"name": "batch_normalization_60/beta", "shape": [192], "dtype": "float32", "quantization": {"min": -1.5151269435882568, "scale": 0.004655336632448084, "dtype": "uint8"}}, {"name": "batch_normalization_60/moving_mean", "shape": [192], "dtype": "float32", "quantization": {"min": -0.8142490229185889, "scale": 0.00413324377116035, "dtype": "uint8"}}, {"name": "batch_normalization_60/moving_variance", "shape": [192], "dtype": "float32", "quantization": {"min": 0.057139456272125244, "scale": 0.0014371233827927532, "dtype": "uint8"}}, {"name": "batch_normalization_61/beta", "shape": [192], "dtype": "float32", "quantization": {"min": -1.6057314739507786, "scale": 0.006862100316028969, "dtype": "uint8"}}, {"name": "batch_normalization_61/moving_mean", "shape": [192], "dtype": "float32", "quantization": {"min": -1.0042154752740673, "scale": 0.004201738390268064, "dtype": "uint8"}}, {"name": "batch_normalization_61/moving_variance", "shape": [192], "dtype": "float32", "quantization": {"min": 0.15316838026046753, "scale": 0.005217466868606268, "dtype": "uint8"}}, {"name": "batch_normalization_62/beta", "shape": [192], "dtype": "float32", "quantization": {"min": -1.7864502668380737, "scale": 0.00600156024390576, "dtype": "uint8"}}, {"name": "batch_normalization_62/moving_mean", "shape": [192], "dtype": "float32", "quantization": {"min": -0.9227149886243483, "scale": 0.005213079031775979, "dtype": "uint8"}}, {"name": "batch_normalization_62/moving_variance", "shape": [192], "dtype": "float32", "quantization": {"min": 0.1614348590373993, "scale": 0.0032648828684114944, "dtype": "uint8"}}, {"name": "batch_normalization_63/beta", "shape": [192], "dtype": "float32", "quantization": {"min": -1.1776894772753996, "scale": 0.007406852058335847, "dtype": "uint8"}}, {"name": "batch_normalization_63/moving_mean", "shape": [192], "dtype": "float32", "quantization": {"min": -0.43638500395943136, "scale": 0.0037297863586276186, "dtype": "uint8"}}, {"name": "batch_normalization_63/moving_variance", "shape": [192], "dtype": "float32", "quantization": {"min": 0.07437790930271149, "scale": 0.0024723641428292965, "dtype": "uint8"}}, {"name": "batch_normalization_64/beta", "shape": [192], "dtype": "float32", "quantization": {"min": -2.056865841734643, "scale": 0.018364873586916457, "dtype": "uint8"}}, {"name": "batch_normalization_64/moving_mean", "shape": [192], "dtype": "float32", "quantization": {"min": -2.03767616444943, "scale": 0.009521851235745, "dtype": "uint8"}}, {"name": "batch_normalization_64/moving_variance", "shape": [192], "dtype": "float32", "quantization": {"min": 0.2305448055267334, "scale": 0.020179123037001666, "dtype": "uint8"}}, {"name": "batch_normalization_65/beta", "shape": [192], "dtype": "float32", "quantization": {"min": -1.5433361321103338, "scale": 0.007602641044878492, "dtype": "uint8"}}, {"name": "batch_normalization_65/moving_mean", "shape": [192], "dtype": "float32", "quantization": {"min": -0.9313972781686222, "scale": 0.007333836835973403, "dtype": "uint8"}}, {"name": "batch_normalization_65/moving_variance", "shape": [192], "dtype": "float32", "quantization": {"min": 0.13595172762870789, "scale": 0.002737317015143002, "dtype": "uint8"}}, {"name": "batch_normalization_66/beta", "shape": [192], "dtype": "float32", "quantization": {"min": -1.5412490765253704, "scale": 0.009066171038384531, "dtype": "uint8"}}, {"name": "batch_normalization_66/moving_mean", "shape": [192], "dtype": "float32", "quantization": {"min": -1.0706468813559589, "scale": 0.006188710296855253, "dtype": "uint8"}}, {"name": "batch_normalization_66/moving_variance", "shape": [192], "dtype": "float32", "quantization": {"min": 0.1599925011396408, "scale": 0.003572851828500336, "dtype": "uint8"}}, {"name": "batch_normalization_67/beta", "shape": [192], "dtype": "float32", "quantization": {"min": -1.4993665218353271, "scale": 0.005622119938626009, "dtype": "uint8"}}, {"name": "batch_normalization_67/moving_mean", "shape": [192], "dtype": "float32", "quantization": {"min": -1.0356478170436971, "scale": 0.00490828349309809, "dtype": "uint8"}}, {"name": "batch_normalization_67/moving_variance", "shape": [192], "dtype": "float32", "quantization": {"min": 0.0869603157043457, "scale": 0.002599081806108063, "dtype": "uint8"}}, {"name": "batch_normalization_68/beta", "shape": [192], "dtype": "float32", "quantization": {"min": -1.1034980392923541, "scale": 0.00580788441732818, "dtype": "uint8"}}, {"name": "batch_normalization_68/moving_mean", "shape": [192], "dtype": "float32", "quantization": {"min": -0.8929975191752115, "scale": 0.007504180833405139, "dtype": "uint8"}}, {"name": "batch_normalization_68/moving_variance", "shape": [192], "dtype": "float32", "quantization": {"min": 0.11288973689079285, "scale": 0.0021923269711288753, "dtype": "uint8"}}, {"name": "batch_normalization_69/beta", "shape": [192], "dtype": "float32", "quantization": {"min": -2.1572556495666504, "scale": 0.012689739115097944, "dtype": "uint8"}}, {"name": "batch_normalization_69/moving_mean", "shape": [192], "dtype": "float32", "quantization": {"min": -1.5533461570739746, "scale": 0.004534612216201483, "dtype": "uint8"}}, {"name": "batch_normalization_69/moving_variance", "shape": [192], "dtype": "float32", "quantization": {"min": 0.2257026582956314, "scale": 0.01203404261785395, "dtype": "uint8"}}, {"name": "batch_normalization_7/beta", "shape": [48], "dtype": "float32", "quantization": {"min": -0.6259138478952295, "scale": 0.009629443813772762, "dtype": "uint8"}}, {"name": "batch_normalization_7/moving_mean", "shape": [48], "dtype": "float32", "quantization": {"min": -2.1740409458384793, "scale": 0.019945329778334672, "dtype": "uint8"}}, {"name": "batch_normalization_7/moving_variance", "shape": [48], "dtype": "float32", "quantization": {"min": 0.3680301010608673, "scale": 0.014270223238888909, "dtype": "uint8"}}, {"name": "batch_normalization_70/beta", "shape": [192], "dtype": "float32", "quantization": {"min": -1.887393593788147, "scale": 0.0044673978113660626, "dtype": "uint8"}}, {"name": "batch_normalization_70/moving_mean", "shape": [192], "dtype": "float32", "quantization": {"min": -0.8378728091935901, "scale": 0.003392197608071215, "dtype": "uint8"}}, {"name": "batch_normalization_70/moving_variance", "shape": [192], "dtype": "float32", "quantization": {"min": 0.10655499994754791, "scale": 0.0014907763869154687, "dtype": "uint8"}}, {"name": "batch_normalization_71/beta", "shape": [192], "dtype": "float32", "quantization": {"min": -1.6062922477722168, "scale": 0.005729733904202779, "dtype": "uint8"}}, {"name": "batch_normalization_71/moving_mean", "shape": [192], "dtype": "float32", "quantization": {"min": -0.4905350622008829, "scale": 0.004762476332047407, "dtype": "uint8"}}, {"name": "batch_normalization_71/moving_variance", "shape": [192], "dtype": "float32", "quantization": {"min": 0.03150006756186485, "scale": 0.0005198443783264534, "dtype": "uint8"}}, {"name": "batch_normalization_72/beta", "shape": [320], "dtype": "float32", "quantization": {"min": -1.5345693765902053, "scale": 0.009244393834880755, "dtype": "uint8"}}, {"name": "batch_normalization_72/moving_mean", "shape": [320], "dtype": "float32", "quantization": {"min": -1.3449763097015082, "scale": 0.0065290112121432434, "dtype": "uint8"}}, {"name": "batch_normalization_72/moving_variance", "shape": [320], "dtype": "float32", "quantization": {"min": 0.03741960600018501, "scale": 0.002082722838602814, "dtype": "uint8"}}, {"name": "batch_normalization_73/beta", "shape": [192], "dtype": "float32", "quantization": {"min": -0.976520846638025, "scale": 0.012682088917376948, "dtype": "uint8"}}, {"name": "batch_normalization_73/moving_mean", "shape": [192], "dtype": "float32", "quantization": {"min": -0.8563874328837676, "scale": 0.009515415920930751, "dtype": "uint8"}}, {"name": "batch_normalization_73/moving_variance", "shape": [192], "dtype": "float32", "quantization": {"min": 0.023837026208639145, "scale": 0.0018535440020701465, "dtype": "uint8"}}, {"name": "batch_normalization_74/beta", "shape": [192], "dtype": "float32", "quantization": {"min": -1.0793825892841113, "scale": 0.01564322593165379, "dtype": "uint8"}}, {"name": "batch_normalization_74/moving_mean", "shape": [192], "dtype": "float32", "quantization": {"min": -1.4408408015382057, "scale": 0.009479215799593458, "dtype": "uint8"}}, {"name": "batch_normalization_74/moving_variance", "shape": [192], "dtype": "float32", "quantization": {"min": 0.0746384933590889, "scale": 0.006657538665275947, "dtype": "uint8"}}, {"name": "batch_normalization_75/beta", "shape": [192], "dtype": "float32", "quantization": {"min": -1.4449146981332817, "scale": 0.007685716479432349, "dtype": "uint8"}}, {"name": "batch_normalization_75/moving_mean", "shape": [192], "dtype": "float32", "quantization": {"min": -2.177797410534877, "scale": 0.015667607270035088, "dtype": "uint8"}}, {"name": "batch_normalization_75/moving_variance", "shape": [192], "dtype": "float32", "quantization": {"min": 0.13271783292293549, "scale": 0.009185641478089725, "dtype": "uint8"}}, {"name": "batch_normalization_76/beta", "shape": [192], "dtype": "float32", "quantization": {"min": -1.616866923313515, "scale": 0.012156894160251992, "dtype": "uint8"}}, {"name": "batch_normalization_76/moving_mean", "shape": [192], "dtype": "float32", "quantization": {"min": -1.1515899740013422, "scale": 0.007064969165652406, "dtype": "uint8"}}, {"name": "batch_normalization_76/moving_variance", "shape": [192], "dtype": "float32", "quantization": {"min": 0.05399768427014351, "scale": 0.009012863960336237, "dtype": "uint8"}}, {"name": "batch_normalization_77/beta", "shape": [320], "dtype": "float32", "quantization": {"min": -1.62535791794459, "scale": 0.008509727319081624, "dtype": "uint8"}}, {"name": "batch_normalization_77/moving_mean", "shape": [320], "dtype": "float32", "quantization": {"min": -2.096587989844528, "scale": 0.010379148464576871, "dtype": "uint8"}}, {"name": "batch_normalization_77/moving_variance", "shape": [320], "dtype": "float32", "quantization": {"min": 0.08911118656396866, "scale": 0.018875807027022042, "dtype": "uint8"}}, {"name": "batch_normalization_78/beta", "shape": [384], "dtype": "float32", "quantization": {"min": -1.411281039901808, "scale": 0.008157693872264787, "dtype": "uint8"}}, {"name": "batch_normalization_78/moving_mean", "shape": [384], "dtype": "float32", "quantization": {"min": -0.7015528739667407, "scale": 0.00512082389756745, "dtype": "uint8"}}, {"name": "batch_normalization_78/moving_variance", "shape": [384], "dtype": "float32", "quantization": {"min": 0.10264912247657776, "scale": 0.0043747629605087575, "dtype": "uint8"}}, {"name": "batch_normalization_79/beta", "shape": [384], "dtype": "float32", "quantization": {"min": -2.0482077598571777, "scale": 0.004191377817415723, "dtype": "uint8"}}, {"name": "batch_normalization_79/moving_mean", "shape": [384], "dtype": "float32", "quantization": {"min": -0.5236435532569885, "scale": 0.0017684573636335486, "dtype": "uint8"}}, {"name": "batch_normalization_79/moving_variance", "shape": [384], "dtype": "float32", "quantization": {"min": 0.05456944555044174, "scale": 0.0007294551122422312, "dtype": "uint8"}}, {"name": "batch_normalization_8/beta", "shape": [64], "dtype": "float32", "quantization": {"min": -1.2169222845750698, "scale": 0.021349513764474908, "dtype": "uint8"}}, {"name": "batch_normalization_8/moving_mean", "shape": [64], "dtype": "float32", "quantization": {"min": -7.352502991171444, "scale": 0.03551933812160118, "dtype": "uint8"}}, {"name": "batch_normalization_8/moving_variance", "shape": [64], "dtype": "float32", "quantization": {"min": 1.2515424489974976, "scale": 0.03510500449760287, "dtype": "uint8"}}, {"name": "batch_normalization_80/beta", "shape": [384], "dtype": "float32", "quantization": {"min": -1.7139087915420532, "scale": 0.0031792404604893106, "dtype": "uint8"}}, {"name": "batch_normalization_80/moving_mean", "shape": [384], "dtype": "float32", "quantization": {"min": -0.47385600209236145, "scale": 0.0016459027195678039, "dtype": "uint8"}}, {"name": "batch_normalization_80/moving_variance", "shape": [384], "dtype": "float32", "quantization": {"min": 0.056805841624736786, "scale": 0.000977698874239828, "dtype": "uint8"}}, {"name": "batch_normalization_81/beta", "shape": [448], "dtype": "float32", "quantization": {"min": -1.876950658419553, "scale": 0.008730003062416525, "dtype": "uint8"}}, {"name": "batch_normalization_81/moving_mean", "shape": [448], "dtype": "float32", "quantization": {"min": -1.2492966170404471, "scale": 0.007525883235183417, "dtype": "uint8"}}, {"name": "batch_normalization_81/moving_variance", "shape": [448], "dtype": "float32", "quantization": {"min": 0.09692611545324326, "scale": 0.0055268553249976215, "dtype": "uint8"}}, {"name": "batch_normalization_82/beta", "shape": [384], "dtype": "float32", "quantization": {"min": -1.3281755089759828, "scale": 0.008680885679581586, "dtype": "uint8"}}, {"name": "batch_normalization_82/moving_mean", "shape": [384], "dtype": "float32", "quantization": {"min": -1.0871300155041264, "scale": 0.010453173226001216, "dtype": "uint8"}}, {"name": "batch_normalization_82/moving_variance", "shape": [384], "dtype": "float32", "quantization": {"min": 0.17696017026901245, "scale": 0.016678218514311546, "dtype": "uint8"}}, {"name": "batch_normalization_83/beta", "shape": [384], "dtype": "float32", "quantization": {"min": -1.8048905653112075, "scale": 0.015426415088129978, "dtype": "uint8"}}, {"name": "batch_normalization_83/moving_mean", "shape": [384], "dtype": "float32", "quantization": {"min": -1.2779447476069132, "scale": 0.010739031492495069, "dtype": "uint8"}}, {"name": "batch_normalization_83/moving_variance", "shape": [384], "dtype": "float32", "quantization": {"min": 0.06440089643001556, "scale": 0.031125647472400292, "dtype": "uint8"}}, {"name": "batch_normalization_84/beta", "shape": [384], "dtype": "float32", "quantization": {"min": -1.7779763668191197, "scale": 0.008155854893665687, "dtype": "uint8"}}, {"name": "batch_normalization_84/moving_mean", "shape": [384], "dtype": "float32", "quantization": {"min": -1.266454261891982, "scale": 0.011513220562654383, "dtype": "uint8"}}, {"name": "batch_normalization_84/moving_variance", "shape": [384], "dtype": "float32", "quantization": {"min": 0.06857462227344513, "scale": 0.008082409641321968, "dtype": "uint8"}}, {"name": "batch_normalization_85/beta", "shape": [192], "dtype": "float32", "quantization": {"min": -1.1950703859329224, "scale": 0.002958791746812708, "dtype": "uint8"}}, {"name": "batch_normalization_85/moving_mean", "shape": [192], "dtype": "float32", "quantization": {"min": -1.2308165744239208, "scale": 0.005833253907222374, "dtype": "uint8"}}, {"name": "batch_normalization_85/moving_variance", "shape": [192], "dtype": "float32", "quantization": {"min": 0.08030404895544052, "scale": 0.009366162997834823, "dtype": "uint8"}}, {"name": "batch_normalization_86/beta", "shape": [320], "dtype": "float32", "quantization": {"min": -0.5184363722801208, "scale": 0.001944285748051662, "dtype": "uint8"}}, {"name": "batch_normalization_86/moving_mean", "shape": [320], "dtype": "float32", "quantization": {"min": -0.3190902861894346, "scale": 0.0026371098032184678, "dtype": "uint8"}}, {"name": "batch_normalization_86/moving_variance", "shape": [320], "dtype": "float32", "quantization": {"min": 0.059108346700668335, "scale": 0.0030452521408305447, "dtype": "uint8"}}, {"name": "batch_normalization_87/beta", "shape": [384], "dtype": "float32", "quantization": {"min": -1.9891927036584593, "scale": 0.009382984451219148, "dtype": "uint8"}}, {"name": "batch_normalization_87/moving_mean", "shape": [384], "dtype": "float32", "quantization": {"min": -0.4697286491300546, "scale": 0.0028296906574099673, "dtype": "uint8"}}, {"name": "batch_normalization_87/moving_variance", "shape": [384], "dtype": "float32", "quantization": {"min": 0.051736101508140564, "scale": 0.015397787152552137, "dtype": "uint8"}}, {"name": "batch_normalization_88/beta", "shape": [384], "dtype": "float32", "quantization": {"min": -0.3601457476615906, "scale": 0.0012471773606889387, "dtype": "uint8"}}, {"name": "batch_normalization_88/moving_mean", "shape": [384], "dtype": "float32", "quantization": {"min": -0.10807738254467646, "scale": 0.0009082132986947602, "dtype": "uint8"}}, {"name": "batch_normalization_88/moving_variance", "shape": [384], "dtype": "float32", "quantization": {"min": 0.012040918692946434, "scale": 0.0010866651128904493, "dtype": "uint8"}}, {"name": "batch_normalization_89/beta", "shape": [384], "dtype": "float32", "quantization": {"min": -0.2907622754573822, "scale": 0.0010224665131639032, "dtype": "uint8"}}, {"name": "batch_normalization_89/moving_mean", "shape": [384], "dtype": "float32", "quantization": {"min": -0.11967318198260138, "scale": 0.0010685105534160837, "dtype": "uint8"}}, {"name": "batch_normalization_89/moving_variance", "shape": [384], "dtype": "float32", "quantization": {"min": 0.0065938252955675125, "scale": 0.0011864459909060423, "dtype": "uint8"}}, {"name": "batch_normalization_9/beta", "shape": [64], "dtype": "float32", "quantization": {"min": -1.2553448396570541, "scale": 0.017435344995236864, "dtype": "uint8"}}, {"name": "batch_normalization_9/moving_mean", "shape": [64], "dtype": "float32", "quantization": {"min": -9.159099926668056, "scale": 0.05174632726931105, "dtype": "uint8"}}, {"name": "batch_normalization_9/moving_variance", "shape": [64], "dtype": "float32", "quantization": {"min": 0.36967048048973083, "scale": 0.022706968293470495, "dtype": "uint8"}}, {"name": "batch_normalization_90/beta", "shape": [448], "dtype": "float32", "quantization": {"min": -1.9109546511780982, "scale": 0.009013937033858953, "dtype": "uint8"}}, {"name": "batch_normalization_90/moving_mean", "shape": [448], "dtype": "float32", "quantization": {"min": -0.735163209251329, "scale": 0.009547574146121156, "dtype": "uint8"}}, {"name": "batch_normalization_90/moving_variance", "shape": [448], "dtype": "float32", "quantization": {"min": 0.05342137813568115, "scale": 0.023046183586120605, "dtype": "uint8"}}, {"name": "batch_normalization_91/beta", "shape": [384], "dtype": "float32", "quantization": {"min": -1.508420803967644, "scale": 0.016219578537286495, "dtype": "uint8"}}, {"name": "batch_normalization_91/moving_mean", "shape": [384], "dtype": "float32", "quantization": {"min": -0.7645545677811492, "scale": 0.0038419827526690914, "dtype": "uint8"}}, {"name": "batch_normalization_91/moving_variance", "shape": [384], "dtype": "float32", "quantization": {"min": 0.03634133189916611, "scale": 0.012637163055878059, "dtype": "uint8"}}, {"name": "batch_normalization_92/beta", "shape": [384], "dtype": "float32", "quantization": {"min": -0.40311233629198634, "scale": 0.0018837025060373194, "dtype": "uint8"}}, {"name": "batch_normalization_92/moving_mean", "shape": [384], "dtype": "float32", "quantization": {"min": -0.3426092863082886, "scale": 0.003426092863082886, "dtype": "uint8"}}, {"name": "batch_normalization_92/moving_variance", "shape": [384], "dtype": "float32", "quantization": {"min": 0.23589442670345306, "scale": 0.014558691195413177, "dtype": "uint8"}}, {"name": "batch_normalization_93/beta", "shape": [384], "dtype": "float32", "quantization": {"min": -0.4592316448688507, "scale": 0.0013809417392693314, "dtype": "uint8"}}, {"name": "batch_normalization_93/moving_mean", "shape": [384], "dtype": "float32", "quantization": {"min": -0.3781251840731677, "scale": 0.0034065331898483577, "dtype": "uint8"}}, {"name": "batch_normalization_93/moving_variance", "shape": [384], "dtype": "float32", "quantization": {"min": 0.10071992874145508, "scale": 0.014600979113111309, "dtype": "uint8"}}, {"name": "batch_normalization_94/beta", "shape": [192], "dtype": "float32", "quantization": {"min": -0.28764159480730694, "scale": 0.0016920093812194525, "dtype": "uint8"}}, {"name": "batch_normalization_94/moving_mean", "shape": [192], "dtype": "float32", "quantization": {"min": -0.2978866696357727, "scale": 0.002206567923227946, "dtype": "uint8"}}, {"name": "batch_normalization_94/moving_variance", "shape": [192], "dtype": "float32", "quantization": {"min": 0.040443699806928635, "scale": 0.004273693073613971, "dtype": "uint8"}}, {"name": "conv2d_1/kernel", "shape": [3, 3, 3, 32], "dtype": "float32", "quantization": {"min": -0.7515598654747009, "scale": 0.006423588593800863, "dtype": "uint8"}}, {"name": "conv2d_10/kernel", "shape": [3, 3, 64, 96], "dtype": "float32", "quantization": {"min": -0.5314577747793758, "scale": 0.004088136729072122, "dtype": "uint8"}}, {"name": "conv2d_11/kernel", "shape": [3, 3, 96, 96], "dtype": "float32", "quantization": {"min": -0.297173446299983, "scale": 0.0027015767845453, "dtype": "uint8"}}, {"name": "conv2d_12/kernel", "shape": [1, 1, 192, 32], "dtype": "float32", "quantization": {"min": -0.6043872510685641, "scale": 0.003874277250439513, "dtype": "uint8"}}, {"name": "conv2d_13/kernel", "shape": [1, 1, 256, 64], "dtype": "float32", "quantization": {"min": -0.6367825031280518, "scale": 0.005489504337310791, "dtype": "uint8"}}, {"name": "conv2d_14/kernel", "shape": [1, 1, 256, 48], "dtype": "float32", "quantization": {"min": -0.6980268389570946, "scale": 0.004256261213153016, "dtype": "uint8"}}, {"name": "conv2d_15/kernel", "shape": [5, 5, 48, 64], "dtype": "float32", "quantization": {"min": -0.37809036514338323, "scale": 0.0034062195057962454, "dtype": "uint8"}}, {"name": "conv2d_16/kernel", "shape": [1, 1, 256, 64], "dtype": "float32", "quantization": {"min": -0.38000125464271095, "scale": 0.002945746160021015, "dtype": "uint8"}}, {"name": "conv2d_17/kernel", "shape": [3, 3, 64, 96], "dtype": "float32", "quantization": {"min": -0.36159335772196455, "scale": 0.002658774689132092, "dtype": "uint8"}}, {"name": "conv2d_18/kernel", "shape": [3, 3, 96, 96], "dtype": "float32", "quantization": {"min": -0.322937131395527, "scale": 0.0025229463390275546, "dtype": "uint8"}}, {"name": "conv2d_19/kernel", "shape": [1, 1, 256, 64], "dtype": "float32", "quantization": {"min": -0.49620920665123885, "scale": 0.0037308962906108184, "dtype": "uint8"}}, {"name": "conv2d_2/kernel", "shape": [3, 3, 32, 32], "dtype": "float32", "quantization": {"min": -0.9963670036372017, "scale": 0.00784540947745828, "dtype": "uint8"}}, {"name": "conv2d_20/kernel", "shape": [1, 1, 288, 64], "dtype": "float32", "quantization": {"min": -0.9467216884388643, "scale": 0.005954224455590342, "dtype": "uint8"}}, {"name": "conv2d_21/kernel", "shape": [1, 1, 288, 48], "dtype": "float32", "quantization": {"min": -0.36753161491132247, "scale": 0.0028939497237112006, "dtype": "uint8"}}, {"name": "conv2d_22/kernel", "shape": [5, 5, 48, 64], "dtype": "float32", "quantization": {"min": -0.28142107234281655, "scale": 0.0023451756028568045, "dtype": "uint8"}}, {"name": "conv2d_23/kernel", "shape": [1, 1, 288, 64], "dtype": "float32", "quantization": {"min": -0.5600246597738827, "scale": 0.004912497015560374, "dtype": "uint8"}}, {"name": "conv2d_24/kernel", "shape": [3, 3, 64, 96], "dtype": "float32", "quantization": {"min": -0.40741646079456106, "scale": 0.0032334639745600084, "dtype": "uint8"}}, {"name": "conv2d_25/kernel", "shape": [3, 3, 96, 96], "dtype": "float32", "quantization": {"min": -0.2517923231218375, "scale": 0.0026786417353386973, "dtype": "uint8"}}, {"name": "conv2d_26/kernel", "shape": [1, 1, 288, 64], "dtype": "float32", "quantization": {"min": -0.40744167694858474, "scale": 0.00420042965926376, "dtype": "uint8"}}, {"name": "conv2d_27/kernel", "shape": [3, 3, 288, 384], "dtype": "float32", "quantization": {"min": -0.17904583583859837, "scale": 0.0023872778111813115, "dtype": "uint8"}}, {"name": "conv2d_28/kernel", "shape": [1, 1, 288, 64], "dtype": "float32", "quantization": {"min": -0.3550921758015951, "scale": 0.0030092557271321615, "dtype": "uint8"}}, {"name": "conv2d_29/kernel", "shape": [3, 3, 64, 96], "dtype": "float32", "quantization": {"min": -0.21044881904826443, "scale": 0.0021044881904826443, "dtype": "uint8"}}, {"name": "conv2d_3/kernel", "shape": [3, 3, 32, 64], "dtype": "float32", "quantization": {"min": -0.9826949535631666, "scale": 0.006920386996923708, "dtype": "uint8"}}, {"name": "conv2d_30/kernel", "shape": [3, 3, 96, 96], "dtype": "float32", "quantization": {"min": -0.142222724182933, "scale": 0.0013291843381582522, "dtype": "uint8"}}, {"name": "conv2d_31/kernel", "shape": [1, 1, 768, 192], "dtype": "float32", "quantization": {"min": -0.6299613606696035, "scale": 0.004736551583981981, "dtype": "uint8"}}, {"name": "conv2d_32/kernel", "shape": [1, 1, 768, 128], "dtype": "float32", "quantization": {"min": -0.28287766400505515, "scale": 0.0029466423333859913, "dtype": "uint8"}}, {"name": "conv2d_33/kernel", "shape": [1, 7, 128, 128], "dtype": "float32", "quantization": {"min": -0.37715829119962807, "scale": 0.003308406063154632, "dtype": "uint8"}}, {"name": "conv2d_34/kernel", "shape": [7, 1, 128, 192], "dtype": "float32", "quantization": {"min": -0.2915347753786573, "scale": 0.002602989065880869, "dtype": "uint8"}}, {"name": "conv2d_35/kernel", "shape": [1, 1, 768, 128], "dtype": "float32", "quantization": {"min": -0.5098388725636052, "scale": 0.0034217373997557396, "dtype": "uint8"}}, {"name": "conv2d_36/kernel", "shape": [7, 1, 128, 128], "dtype": "float32", "quantization": {"min": -0.29266455173492434, "scale": 0.002956207593282064, "dtype": "uint8"}}, {"name": "conv2d_37/kernel", "shape": [1, 7, 128, 128], "dtype": "float32", "quantization": {"min": -0.3063901633608575, "scale": 0.002664262290094413, "dtype": "uint8"}}, {"name": "conv2d_38/kernel", "shape": [7, 1, 128, 128], "dtype": "float32", "quantization": {"min": -0.2562146642628838, "scale": 0.002227953602285946, "dtype": "uint8"}}, {"name": "conv2d_39/kernel", "shape": [1, 7, 128, 192], "dtype": "float32", "quantization": {"min": -0.32483990402782664, "scale": 0.0024062215113172343, "dtype": "uint8"}}, {"name": "conv2d_4/kernel", "shape": [1, 1, 64, 80], "dtype": "float32", "quantization": {"min": -1.0175340128879922, "scale": 0.008771844938689587, "dtype": "uint8"}}, {"name": "conv2d_40/kernel", "shape": [1, 1, 768, 192], "dtype": "float32", "quantization": {"min": -0.5300707817077637, "scale": 0.003897579277262968, "dtype": "uint8"}}, {"name": "conv2d_41/kernel", "shape": [1, 1, 768, 192], "dtype": "float32", "quantization": {"min": -0.4742822464774637, "scale": 0.0037345058777753046, "dtype": "uint8"}}, {"name": "conv2d_42/kernel", "shape": [1, 1, 768, 160], "dtype": "float32", "quantization": {"min": -0.4733707100737329, "scale": 0.004080781983394249, "dtype": "uint8"}}, {"name": "conv2d_43/kernel", "shape": [1, 7, 160, 160], "dtype": "float32", "quantization": {"min": -0.31529887493918923, "scale": 0.0028405304048575606, "dtype": "uint8"}}, {"name": "conv2d_44/kernel", "shape": [7, 1, 160, 192], "dtype": "float32", "quantization": {"min": -0.2984846812837264, "scale": 0.0025955189676845777, "dtype": "uint8"}}, {"name": "conv2d_45/kernel", "shape": [1, 1, 768, 160], "dtype": "float32", "quantization": {"min": -0.756424422825084, "scale": 0.0054813363972832175, "dtype": "uint8"}}, {"name": "conv2d_46/kernel", "shape": [7, 1, 160, 160], "dtype": "float32", "quantization": {"min": -0.3355672222726485, "scale": 0.0028680959168602437, "dtype": "uint8"}}, {"name": "conv2d_47/kernel", "shape": [1, 7, 160, 160], "dtype": "float32", "quantization": {"min": -0.22706727812103197, "scale": 0.002122124094589084, "dtype": "uint8"}}, {"name": "conv2d_48/kernel", "shape": [7, 1, 160, 160], "dtype": "float32", "quantization": {"min": -0.2144267187983382, "scale": 0.002257123355771981, "dtype": "uint8"}}, {"name": "conv2d_49/kernel", "shape": [1, 7, 160, 192], "dtype": "float32", "quantization": {"min": -0.3024808161398944, "scale": 0.002585306120853798, "dtype": "uint8"}}, {"name": "conv2d_5/kernel", "shape": [3, 3, 80, 192], "dtype": "float32", "quantization": {"min": -0.5794109293058807, "scale": 0.005267372084598915, "dtype": "uint8"}}, {"name": "conv2d_50/kernel", "shape": [1, 1, 768, 192], "dtype": "float32", "quantization": {"min": -0.554896311900195, "scale": 0.0038006596705492807, "dtype": "uint8"}}, {"name": "conv2d_51/kernel", "shape": [1, 1, 768, 192], "dtype": "float32", "quantization": {"min": -0.9996856465059168, "scale": 0.005950509800630457, "dtype": "uint8"}}, {"name": "conv2d_52/kernel", "shape": [1, 1, 768, 160], "dtype": "float32", "quantization": {"min": -0.3167426975334392, "scale": 0.002455369748321234, "dtype": "uint8"}}, {"name": "conv2d_53/kernel", "shape": [1, 7, 160, 160], "dtype": "float32", "quantization": {"min": -0.3413543841418098, "scale": 0.002844619867848415, "dtype": "uint8"}}, {"name": "conv2d_54/kernel", "shape": [7, 1, 160, 192], "dtype": "float32", "quantization": {"min": -0.3577549878288718, "scale": 0.002555392770206227, "dtype": "uint8"}}, {"name": "conv2d_55/kernel", "shape": [1, 1, 768, 160], "dtype": "float32", "quantization": {"min": -0.4141439642391953, "scale": 0.004989686316134883, "dtype": "uint8"}}, {"name": "conv2d_56/kernel", "shape": [7, 1, 160, 160], "dtype": "float32", "quantization": {"min": -0.3399279601433698, "scale": 0.0028807454249438116, "dtype": "uint8"}}, {"name": "conv2d_57/kernel", "shape": [1, 7, 160, 160], "dtype": "float32", "quantization": {"min": -0.246857074545879, "scale": 0.0023966706266590194, "dtype": "uint8"}}, {"name": "conv2d_58/kernel", "shape": [7, 1, 160, 160], "dtype": "float32", "quantization": {"min": -0.5316703810411341, "scale": 0.003544469206940894, "dtype": "uint8"}}, {"name": "conv2d_59/kernel", "shape": [1, 7, 160, 192], "dtype": "float32", "quantization": {"min": -0.4592089354991913, "scale": 0.00340154767036438, "dtype": "uint8"}}, {"name": "conv2d_6/kernel", "shape": [1, 1, 192, 64], "dtype": "float32", "quantization": {"min": -0.670501438776652, "scale": 0.005634465872072706, "dtype": "uint8"}}, {"name": "conv2d_60/kernel", "shape": [1, 1, 768, 192], "dtype": "float32", "quantization": {"min": -0.7082776443631041, "scale": 0.0038916354085884843, "dtype": "uint8"}}, {"name": "conv2d_61/kernel", "shape": [1, 1, 768, 192], "dtype": "float32", "quantization": {"min": -0.8929759320090799, "scale": 0.00551219711116716, "dtype": "uint8"}}, {"name": "conv2d_62/kernel", "shape": [1, 1, 768, 192], "dtype": "float32", "quantization": {"min": -0.43528807022992305, "scale": 0.0045342507315616985, "dtype": "uint8"}}, {"name": "conv2d_63/kernel", "shape": [1, 7, 192, 192], "dtype": "float32", "quantization": {"min": -0.23530594975340602, "scale": 0.00420189195988225, "dtype": "uint8"}}, {"name": "conv2d_64/kernel", "shape": [7, 1, 192, 192], "dtype": "float32", "quantization": {"min": -0.44926712127292856, "scale": 0.0034826908625808415, "dtype": "uint8"}}, {"name": "conv2d_65/kernel", "shape": [1, 1, 768, 192], "dtype": "float32", "quantization": {"min": -0.3830424294752233, "scale": 0.00290183658693351, "dtype": "uint8"}}, {"name": "conv2d_66/kernel", "shape": [7, 1, 192, 192], "dtype": "float32", "quantization": {"min": -0.1887757176277684, "scale": 0.0020744584354699825, "dtype": "uint8"}}, {"name": "conv2d_67/kernel", "shape": [1, 7, 192, 192], "dtype": "float32", "quantization": {"min": -0.21841203611271054, "scale": 0.0018992350966322655, "dtype": "uint8"}}, {"name": "conv2d_68/kernel", "shape": [7, 1, 192, 192], "dtype": "float32", "quantization": {"min": -0.14753329689596212, "scale": 0.0014607257118412092, "dtype": "uint8"}}, {"name": "conv2d_69/kernel", "shape": [1, 7, 192, 192], "dtype": "float32", "quantization": {"min": -0.1535031935747932, "scale": 0.0015989915997374291, "dtype": "uint8"}}, {"name": "conv2d_7/kernel", "shape": [1, 1, 192, 48], "dtype": "float32", "quantization": {"min": -0.6889615984523997, "scale": 0.005467949194066664, "dtype": "uint8"}}, {"name": "conv2d_70/kernel", "shape": [1, 1, 768, 192], "dtype": "float32", "quantization": {"min": -0.4640503114345027, "scale": 0.003338491449169084, "dtype": "uint8"}}, {"name": "conv2d_71/kernel", "shape": [1, 1, 768, 192], "dtype": "float32", "quantization": {"min": -0.12403001747294967, "scale": 0.0012280199749796997, "dtype": "uint8"}}, {"name": "conv2d_72/kernel", "shape": [3, 3, 192, 320], "dtype": "float32", "quantization": {"min": -0.09361315369606019, "scale": 0.000917776016628041, "dtype": "uint8"}}, {"name": "conv2d_73/kernel", "shape": [1, 1, 768, 192], "dtype": "float32", "quantization": {"min": -0.2678715292145224, "scale": 0.003227367821861716, "dtype": "uint8"}}, {"name": "conv2d_74/kernel", "shape": [1, 7, 192, 192], "dtype": "float32", "quantization": {"min": -0.16236194968223572, "scale": 0.0015917838204140757, "dtype": "uint8"}}, {"name": "conv2d_75/kernel", "shape": [7, 1, 192, 192], "dtype": "float32", "quantization": {"min": -0.21758316895541024, "scale": 0.0017689688532960181, "dtype": "uint8"}}, {"name": "conv2d_76/kernel", "shape": [3, 3, 192, 192], "dtype": "float32", "quantization": {"min": -0.31632619628719255, "scale": 0.003329749434602027, "dtype": "uint8"}}, {"name": "conv2d_77/kernel", "shape": [1, 1, 1280, 320], "dtype": "float32", "quantization": {"min": -0.2808211048444112, "scale": 0.0033037777040518966, "dtype": "uint8"}}, {"name": "conv2d_78/kernel", "shape": [1, 1, 1280, 384], "dtype": "float32", "quantization": {"min": -0.247011491188816, "scale": 0.0021479260103375304, "dtype": "uint8"}}, {"name": "conv2d_79/kernel", "shape": [1, 3, 384, 384], "dtype": "float32", "quantization": {"min": -0.09131706964735892, "scale": 0.0009318068331363154, "dtype": "uint8"}}, {"name": "conv2d_8/kernel", "shape": [5, 5, 48, 64], "dtype": "float32", "quantization": {"min": -0.8959833215264714, "scale": 0.007859502820407644, "dtype": "uint8"}}, {"name": "conv2d_80/kernel", "shape": [3, 1, 384, 384], "dtype": "float32", "quantization": {"min": -0.12151438313371994, "scale": 0.0013208085123230429, "dtype": "uint8"}}, {"name": "conv2d_81/kernel", "shape": [1, 1, 1280, 448], "dtype": "float32", "quantization": {"min": -0.36899381128011965, "scale": 0.004145997879551906, "dtype": "uint8"}}, {"name": "conv2d_82/kernel", "shape": [3, 3, 448, 384], "dtype": "float32", "quantization": {"min": -0.23115824531106388, "scale": 0.0025125896229463464, "dtype": "uint8"}}, {"name": "conv2d_83/kernel", "shape": [1, 3, 384, 384], "dtype": "float32", "quantization": {"min": -1.194578488667806, "scale": 0.007026932286281212, "dtype": "uint8"}}, {"name": "conv2d_84/kernel", "shape": [3, 1, 384, 384], "dtype": "float32", "quantization": {"min": -0.23969553411006927, "scale": 0.002819947460118462, "dtype": "uint8"}}, {"name": "conv2d_85/kernel", "shape": [1, 1, 1280, 192], "dtype": "float32", "quantization": {"min": -0.29540291837617466, "scale": 0.002685481076147042, "dtype": "uint8"}}, {"name": "conv2d_86/kernel", "shape": [1, 1, 2048, 320], "dtype": "float32", "quantization": {"min": -0.1421173983929204, "scale": 0.0018456804986093558, "dtype": "uint8"}}, {"name": "conv2d_87/kernel", "shape": [1, 1, 2048, 384], "dtype": "float32", "quantization": {"min": -0.7889481207903694, "scale": 0.0046961197666093414, "dtype": "uint8"}}, {"name": "conv2d_88/kernel", "shape": [1, 3, 384, 384], "dtype": "float32", "quantization": {"min": -0.03761579571109192, "scale": 0.0009174584319778517, "dtype": "uint8"}}, {"name": "conv2d_89/kernel", "shape": [3, 1, 384, 384], "dtype": "float32", "quantization": {"min": -0.044340468709375344, "scale": 0.0009639232328125074, "dtype": "uint8"}}, {"name": "conv2d_9/kernel", "shape": [1, 1, 192, 64], "dtype": "float32", "quantization": {"min": -0.4946352222386528, "scale": 0.004191823917276719, "dtype": "uint8"}}, {"name": "conv2d_90/kernel", "shape": [1, 1, 2048, 448], "dtype": "float32", "quantization": {"min": -0.7696329144870534, "scale": 0.007934359943165499, "dtype": "uint8"}}, {"name": "conv2d_91/kernel", "shape": [3, 3, 448, 384], "dtype": "float32", "quantization": {"min": -0.314436198683346, "scale": 0.002346538796144373, "dtype": "uint8"}}, {"name": "conv2d_92/kernel", "shape": [1, 3, 384, 384], "dtype": "float32", "quantization": {"min": -0.09274289125905318, "scale": 0.0009367968814045775, "dtype": "uint8"}}, {"name": "conv2d_93/kernel", "shape": [3, 1, 384, 384], "dtype": "float32", "quantization": {"min": -0.06271943222073947, "scale": 0.0007939168635536642, "dtype": "uint8"}}, {"name": "conv2d_94/kernel", "shape": [1, 1, 2048, 192], "dtype": "float32", "quantization": {"min": -0.31571701461193613, "scale": 0.002428592420091816, "dtype": "uint8"}}, {"name": "dense_1/kernel", "shape": [2048, 256], "dtype": "float32", "quantization": {"min": -0.11324135889025295, "scale": 0.0009358789990929996, "dtype": "uint8"}}, {"name": "dense_1/bias", "shape": [256], "dtype": "float32", "quantization": {"min": -0.38042640826281376, "scale": 0.0031182492480558506, "dtype": "uint8"}}, {"name": "dense_2/kernel", "shape": [256, 128], "dtype": "float32", "quantization": {"min": -0.4073157079079572, "scale": 0.0028887638858720367, "dtype": "uint8"}}, {"name": "dense_2/bias", "shape": [128], "dtype": "float32", "quantization": {"min": -0.049052704958354724, "scale": 0.002335843093254987, "dtype": "uint8"}}, {"name": "dense_3/kernel", "shape": [128, 5], "dtype": "float32", "quantization": {"min": -0.5240715209175559, "scale": 0.0037976197167938833, "dtype": "uint8"}}, {"name": "dense_3/bias", "shape": [5], "dtype": "float32", "quantization": {"min": -0.6630851825078329, "scale": 0.0039005010735754875, "dtype": "uint8"}}]}]}